…
len(train_dataloader) = 2279
=> Instantiating valid dataloader 
len(valid_dataset) = 4
len(valid_dataloader) = 1
=> Instantiating the optimizer 
batch_size = 2, learning rate = 4.5e-06
=> Preparing opt_disc 
Reached end on node 2 with result (AcceleratedOptimizer (
Parameter Group 0
    amsgrad: False
    betas: (0.5, 0.9)
    capturable: False
    differentiable: False
    eps: 1e-08
    foreach: None
    fused: None
    lr: 2.7e-05
    maximize: False
    weight_decay: 0
),)
=> Preparing model 
Reached end on node 3 with result (DistributedDataParallel(
  (module): AutoencoderKL(
    (encoder): Encoder(
      (conv_in): Conv2d(1, 128, kernel_size=(3, 3), stride=(1, 1), padding=(1, 1))
      (down): ModuleList(
        (0): Module(
          (block): ModuleList(
            (0-1): 2 x ResnetBlock(
              (norm1): GroupNorm(32, 128, eps=1e-06, affine=True)
              (conv1): Conv2d(128, 128, kernel_size=(3, 3), stride=(1, 1), padding=(1, 1))
              (norm2): GroupNorm(32, 128, eps=1e-06, affine=True)
              (dropout): Dropout(p=0.0, inplace=False)
              (conv2): Conv2d(128, 128, kernel_size=(3, 3), stride=(1, 1), padding=(1, 1))
            )
          )
          (attn): ModuleList()
          (downsample): Downsample(
            (conv): Conv2d(128, 128, kernel_size=(3, 3), stride=(2, 2))
          )
        )
        (1): Module(
          (block): ModuleList(
            (0): ResnetBlock(
              (norm1): GroupNorm(32, 128, eps=1e-06, affine=True)
              (conv1): Conv2d(128, 256, kernel_size=(3, 3), stride=(1, 1), padding=(1, 1))
              (norm2): GroupNorm(32, 256, eps=1e-06, affine=True)
              (dropout): Dropout(p=0.0, inplace=False)
              (conv2): Conv2d(256, 256, kernel_size=(3, 3), stride=(1, 1), padding=(1, 1))
              (nin_shortcut): Conv2d(128, 256, kernel_size=(1, 1), stride=(1, 1))
            )
            (1): ResnetBlock(
              (norm1): GroupNorm(32, 256, eps=1e-06, affine=True)
              (conv1): Conv2d(256, 256, kernel_size=(3, 3), stride=(1, 1), padding=(1, 1))
              (norm2): GroupNorm(32, 256, eps=1e-06, affine=True)
              (dropout): Dropout(p=0.0, inplace=False)
              (conv2): Conv2d(256, 256, kernel_size=(3, 3), stride=(1, 1), padding=(1, 1))
            )
          )
          (attn): ModuleList()
          (downsample): Downsample(
            (conv): Conv2d(256, 256, kernel_size=(3, 3), stride=(2, 2))
          )
        )
        (2): Module(
          (block): ModuleList(
            (0): ResnetBlock(
              (norm1): GroupNorm(32, 256, eps=1e-06, affine=True)
              (conv1): Conv2d(256, 512, kernel_size=(3, 3), stride=(1, 1), padding=(1, 1))
              (norm2): GroupNorm(32, 512, eps=1e-06, affine=True)
              (dropout): Dropout(p=0.0, inplace=False)
              (conv2): Conv2d(512, 512, kernel_size=(3, 3), stride=(1, 1), padding=(1, 1))
              (nin_shortcut): Conv2d(256, 512, kernel_size=(1, 1), stride=(1, 1))
            )
            (1): ResnetBlock(
              (norm1): GroupNorm(32, 512, eps=1e-06, affine=True)
              (conv1): Conv2d(512, 512, kernel_size=(3, 3), stride=(1, 1), padding=(1, 1))
              (norm2): GroupNorm(32, 512, eps=1e-06, affine=True)
              (dropout): Dropout(p=0.0, inplace=False)
              (conv2): Conv2d(512, 512, kernel_size=(3, 3), stride=(1, 1), padding=(1, 1))
            )
          )
          (attn): ModuleList()
          (downsample): Downsample(
            (conv): Conv2d(512, 512, kernel_size=(3, 3), stride=(2, 2))
          )
        )
        (3): Module(
          (block): ModuleList(
            (0-1): 2 x ResnetBlock(
              (norm1): GroupNorm(32, 512, eps=1e-06, affine=True)
              (conv1): Conv2d(512, 512, kernel_size=(3, 3), stride=(1, 1), padding=(1, 1))
              (norm2): GroupNorm(32, 512, eps=1e-06, affine=True)
              (dropout): Dropout(p=0.0, inplace=False)
              (conv2): Conv2d(512, 512, kernel_size=(3, 3), stride=(1, 1), padding=(1, 1))
            )
          )
          (attn): ModuleList()
        )
      )
      (mid): Module(
        (block_1): ResnetBlock(
          (norm1): GroupNorm(32, 512, eps=1e-06, affine=True)
          (conv1): Conv2d(512, 512, kernel_size=(3, 3), stride=(1, 1), padding=(1, 1))
          (norm2): GroupNorm(32, 512, eps=1e-06, affine=True)
          (dropout): Dropout(p=0.0, inplace=False)
          (conv2): Conv2d(512, 512, kernel_size=(3, 3), stride=(1, 1), padding=(1, 1))
        )
        (attn_1): AttnBlock(
          (norm): GroupNorm(32, 512, eps=1e-06, affine=True)
          (q): Conv2d(512, 512, kernel_size=(1, 1), stride=(1, 1))
          (k): Conv2d(512, 512, kernel_size=(1, 1), stride=(1, 1))
          (v): Conv2d(512, 512, kernel_size=(1, 1), stride=(1, 1))
          (proj_out): Conv2d(512, 512, kernel_size=(1, 1), stride=(1, 1))
        )
        (block_2): ResnetBlock(
          (norm1): GroupNorm(32, 512, eps=1e-06, affine=True)
          (conv1): Conv2d(512, 512, kernel_size=(3, 3), stride=(1, 1), padding=(1, 1))
          (norm2): GroupNorm(32, 512, eps=1e-06, affine=True)
          (dropout): Dropout(p=0.0, inplace=False)
          (conv2): Conv2d(512, 512, kernel_size=(3, 3), stride=(1, 1), padding=(1, 1))
        )
      )
      (norm_out): GroupNorm(32, 512, eps=1e-06, affine=True)
      (conv_out): Conv2d(512, 2, kernel_size=(3, 3), stride=(1, 1), padding=(1, 1))
    )
    (decoder): Decoder(
      (conv_in): Conv2d(1, 512, kernel_size=(3, 3), stride=(1, 1), padding=(1, 1))
      (mid): Module(
        (block_1): ResnetBlock(
          (norm1): GroupNorm(32, 512, eps=1e-06, affine=True)
          (conv1): Conv2d(512, 512, kernel_size=(3, 3), stride=(1, 1), padding=(1, 1))
          (norm2): GroupNorm(32, 512, eps=1e-06, affine=True)
          (dropout): Dropout(p=0.0, inplace=False)
          (conv2): Conv2d(512, 512, kernel_size=(3, 3), stride=(1, 1), padding=(1, 1))
        )
        (attn_1): AttnBlock(
          (norm): GroupNorm(32, 512, eps=1e-06, affine=True)
          (q): Conv2d(512, 512, kernel_size=(1, 1), stride=(1, 1))
          (k): Conv2d(512, 512, kernel_size=(1, 1), stride=(1, 1))
          (v): Conv2d(512, 512, kernel_size=(1, 1), stride=(1, 1))
          (proj_out): Conv2d(512, 512, kernel_size=(1, 1), stride=(1, 1))
        )
        (block_2): ResnetBlock(
          (norm1): GroupNorm(32, 512, eps=1e-06, affine=True)
          (conv1): Conv2d(512, 512, kernel_size=(3, 3), stride=(1, 1), padding=(1, 1))
          (norm2): GroupNorm(32, 512, eps=1e-06, affine=True)
          (dropout): Dropout(p=0.0, inplace=False)
          (conv2): Conv2d(512, 512, kernel_size=(3, 3), stride=(1, 1), padding=(1, 1))
        )
      )
      (up): ModuleList(
        (0): Module(
          (block): ModuleList(
            (0): ResnetBlock(
              (norm1): GroupNorm(32, 256, eps=1e-06, affine=True)
              (conv1): Conv2d(256, 128, kernel_size=(3, 3), stride=(1, 1), padding=(1, 1))
              (norm2): GroupNorm(32, 128, eps=1e-06, affine=True)
              (dropout): Dropout(p=0.0, inplace=False)
              (conv2): Conv2d(128, 128, kernel_size=(3, 3), stride=(1, 1), padding=(1, 1))
              (nin_shortcut): Conv2d(256, 128, kernel_size=(1, 1), stride=(1, 1))
            )
            (1-2): 2 x ResnetBlock(
              (norm1): GroupNorm(32, 128, eps=1e-06, affine=True)
              (conv1): Conv2d(128, 128, kernel_size=(3, 3), stride=(1, 1), padding=(1, 1))
              (norm2): GroupNorm(32, 128, eps=1e-06, affine=True)
              (dropout): Dropout(p=0.0, inplace=False)
              (conv2): Conv2d(128, 128, kernel_size=(3, 3), stride=(1, 1), padding=(1, 1))
            )
          )
          (attn): ModuleList()
        )
        (1): Module(
          (block): ModuleList(
            (0): ResnetBlock(
              (norm1): GroupNorm(32, 512, eps=1e-06, affine=True)
              (conv1): Conv2d(512, 256, kernel_size=(3, 3), stride=(1, 1), padding=(1, 1))
              (norm2): GroupNorm(32, 256, eps=1e-06, affine=True)
              (dropout): Dropout(p=0.0, inplace=False)
              (conv2): Conv2d(256, 256, kernel_size=(3, 3), stride=(1, 1), padding=(1, 1))
              (nin_shortcut): Conv2d(512, 256, kernel_size=(1, 1), stride=(1, 1))
            )
            (1-2): 2 x ResnetBlock(
              (norm1): GroupNorm(32, 256, eps=1e-06, affine=True)
              (conv1): Conv2d(256, 256, kernel_size=(3, 3), stride=(1, 1), padding=(1, 1))
              (norm2): GroupNorm(32, 256, eps=1e-06, affine=True)
              (dropout): Dropout(p=0.0, inplace=False)
              (conv2): Conv2d(256, 256, kernel_size=(3, 3), stride=(1, 1), padding=(1, 1))
            )
          )
          (attn): ModuleList()
          (upsample): Upsample(
            (conv): Conv2d(256, 256, kernel_size=(3, 3), stride=(1, 1), padding=(1, 1))
          )
        )
        (2-3): 2 x Module(
          (block): ModuleList(
            (0-2): 3 x ResnetBlock(
              (norm1): GroupNorm(32, 512, eps=1e-06, affine=True)
              (conv1): Conv2d(512, 512, kernel_size=(3, 3), stride=(1, 1), padding=(1, 1))
              (norm2): GroupNorm(32, 512, eps=1e-06, affine=True)
              (dropout): Dropout(p=0.0, inplace=False)
              (conv2): Conv2d(512, 512, kernel_size=(3, 3), stride=(1, 1), padding=(1, 1))
            )
          )
          (attn): ModuleList()
          (upsample): Upsample(
            (conv): Conv2d(512, 512, kernel_size=(3, 3), stride=(1, 1), padding=(1, 1))
          )
        )
      )
      (norm_out): GroupNorm(32, 128, eps=1e-06, affine=True)
      (conv_out): Conv2d(128, 1, kernel_size=(3, 3), stride=(1, 1), padding=(1, 1))
    )
    (quant_conv): Conv2d(2, 2, kernel_size=(1, 1), stride=(1, 1))
    (post_quant_conv): Conv2d(1, 1, kernel_size=(1, 1), stride=(1, 1))
  )
),)
Reached end on node 4 with result (DistributedDataParallel(
  (module): AutoencoderKL(
    (encoder): Encoder(
      (conv_in): Conv2d(1, 128, kernel_size=(3, 3), stride=(1, 1), padding=(1, 1))
      (down): ModuleList(
        (0): Module(
          (block): ModuleList(
            (0-1): 2 x ResnetBlock(
              (norm1): GroupNorm(32, 128, eps=1e-06, affine=True)
              (conv1): Conv2d(128, 128, kernel_size=(3, 3), stride=(1, 1), padding=(1, 1))
              (norm2): GroupNorm(32, 128, eps=1e-06, affine=True)
              (dropout): Dropout(p=0.0, inplace=False)
              (conv2): Conv2d(128, 128, kernel_size=(3, 3), stride=(1, 1), padding=(1, 1))
            )
          )
          (attn): ModuleList()
          (downsample): Downsample(
            (conv): Conv2d(128, 128, kernel_size=(3, 3), stride=(2, 2))
          )
        )
        (1): Module(
          (block): ModuleList(
            (0): ResnetBlock(
              (norm1): GroupNorm(32, 128, eps=1e-06, affine=True)
              (conv1): Conv2d(128, 256, kernel_size=(3, 3), stride=(1, 1), padding=(1, 1))
              (norm2): GroupNorm(32, 256, eps=1e-06, affine=True)
              (dropout): Dropout(p=0.0, inplace=False)
              (conv2): Conv2d(256, 256, kernel_size=(3, 3), stride=(1, 1), padding=(1, 1))
              (nin_shortcut): Conv2d(128, 256, kernel_size=(1, 1), stride=(1, 1))
            )
            (1): ResnetBlock(
              (norm1): GroupNorm(32, 256, eps=1e-06, affine=True)
              (conv1): Conv2d(256, 256, kernel_size=(3, 3), stride=(1, 1), padding=(1, 1))
              (norm2): GroupNorm(32, 256, eps=1e-06, affine=True)
              (dropout): Dropout(p=0.0, inplace=False)
              (conv2): Conv2d(256, 256, kernel_size=(3, 3), stride=(1, 1), padding=(1, 1))
            )
          )
          (attn): ModuleList()
          (downsample): Downsample(
            (conv): Conv2d(256, 256, kernel_size=(3, 3), stride=(2, 2))
          )
        )
        (2): Module(
          (block): ModuleList(
            (0): ResnetBlock(
              (norm1): GroupNorm(32, 256, eps=1e-06, affine=True)
              (conv1): Conv2d(256, 512, kernel_size=(3, 3), stride=(1, 1), padding=(1, 1))
              (norm2): GroupNorm(32, 512, eps=1e-06, affine=True)
              (dropout): Dropout(p=0.0, inplace=False)
              (conv2): Conv2d(512, 512, kernel_size=(3, 3), stride=(1, 1), padding=(1, 1))
              (nin_shortcut): Conv2d(256, 512, kernel_size=(1, 1), stride=(1, 1))
            )
            (1): ResnetBlock(
              (norm1): GroupNorm(32, 512, eps=1e-06, affine=True)
              (conv1): Conv2d(512, 512, kernel_size=(3, 3), stride=(1, 1), padding=(1, 1))
              (norm2): GroupNorm(32, 512, eps=1e-06, affine=True)
              (dropout): Dropout(p=0.0, inplace=False)
              (conv2): Conv2d(512, 512, kernel_size=(3, 3), stride=(1, 1), padding=(1, 1))
            )
          )
          (attn): ModuleList()
          (downsample): Downsample(
            (conv): Conv2d(512, 512, kernel_size=(3, 3), stride=(2, 2))
          )
        )
        (3): Module(
          (block): ModuleList(
            (0-1): 2 x ResnetBlock(
              (norm1): GroupNorm(32, 512, eps=1e-06, affine=True)
              (conv1): Conv2d(512, 512, kernel_size=(3, 3), stride=(1, 1), padding=(1, 1))
              (norm2): GroupNorm(32, 512, eps=1e-06, affine=True)
              (dropout): Dropout(p=0.0, inplace=False)
              (conv2): Conv2d(512, 512, kernel_size=(3, 3), stride=(1, 1), padding=(1, 1))
            )
          )
          (attn): ModuleList()
        )
      )
      (mid): Module(
        (block_1): ResnetBlock(
          (norm1): GroupNorm(32, 512, eps=1e-06, affine=True)
          (conv1): Conv2d(512, 512, kernel_size=(3, 3), stride=(1, 1), padding=(1, 1))
          (norm2): GroupNorm(32, 512, eps=1e-06, affine=True)
          (dropout): Dropout(p=0.0, inplace=False)
          (conv2): Conv2d(512, 512, kernel_size=(3, 3), stride=(1, 1), padding=(1, 1))
        )
        (attn_1): AttnBlock(
          (norm): GroupNorm(32, 512, eps=1e-06, affine=True)
          (q): Conv2d(512, 512, kernel_size=(1, 1), stride=(1, 1))
          (k): Conv2d(512, 512, kernel_size=(1, 1), stride=(1, 1))
          (v): Conv2d(512, 512, kernel_size=(1, 1), stride=(1, 1))
          (proj_out): Conv2d(512, 512, kernel_size=(1, 1), stride=(1, 1))
        )
        (block_2): ResnetBlock(
          (norm1): GroupNorm(32, 512, eps=1e-06, affine=True)
          (conv1): Conv2d(512, 512, kernel_size=(3, 3), stride=(1, 1), padding=(1, 1))
          (norm2): GroupNorm(32, 512, eps=1e-06, affine=True)
          (dropout): Dropout(p=0.0, inplace=False)
          (conv2): Conv2d(512, 512, kernel_size=(3, 3), stride=(1, 1), padding=(1, 1))
        )
      )
      (norm_out): GroupNorm(32, 512, eps=1e-06, affine=True)
      (conv_out): Conv2d(512, 2, kernel_size=(3, 3), stride=(1, 1), padding=(1, 1))
    )
    (decoder): Decoder(
      (conv_in): Conv2d(1, 512, kernel_size=(3, 3), stride=(1, 1), padding=(1, 1))
      (mid): Module(
        (block_1): ResnetBlock(
          (norm1): GroupNorm(32, 512, eps=1e-06, affine=True)
          (conv1): Conv2d(512, 512, kernel_size=(3, 3), stride=(1, 1), padding=(1, 1))
          (norm2): GroupNorm(32, 512, eps=1e-06, affine=True)
          (dropout): Dropout(p=0.0, inplace=False)
          (conv2): Conv2d(512, 512, kernel_size=(3, 3), stride=(1, 1), padding=(1, 1))
        )
        (attn_1): AttnBlock(
          (norm): GroupNorm(32, 512, eps=1e-06, affine=True)
          (q): Conv2d(512, 512, kernel_size=(1, 1), stride=(1, 1))
          (k): Conv2d(512, 512, kernel_size=(1, 1), stride=(1, 1))
          (v): Conv2d(512, 512, kernel_size=(1, 1), stride=(1, 1))
          (proj_out): Conv2d(512, 512, kernel_size=(1, 1), stride=(1, 1))
        )
        (block_2): ResnetBlock(
          (norm1): GroupNorm(32, 512, eps=1e-06, affine=True)
          (conv1): Conv2d(512, 512, kernel_size=(3, 3), stride=(1, 1), padding=(1, 1))
          (norm2): GroupNorm(32, 512, eps=1e-06, affine=True)
          (dropout): Dropout(p=0.0, inplace=False)
          (conv2): Conv2d(512, 512, kernel_size=(3, 3), stride=(1, 1), padding=(1, 1))
        )
      )
      (up): ModuleList(
        (0): Module(
          (block): ModuleList(
            (0): ResnetBlock(
              (norm1): GroupNorm(32, 256, eps=1e-06, affine=True)
              (conv1): Conv2d(256, 128, kernel_size=(3, 3), stride=(1, 1), padding=(1, 1))
              (norm2): GroupNorm(32, 128, eps=1e-06, affine=True)
              (dropout): Dropout(p=0.0, inplace=False)
              (conv2): Conv2d(128, 128, kernel_size=(3, 3), stride=(1, 1), padding=(1, 1))
              (nin_shortcut): Conv2d(256, 128, kernel_size=(1, 1), stride=(1, 1))
            )
            (1-2): 2 x ResnetBlock(
              (norm1): GroupNorm(32, 128, eps=1e-06, affine=True)
              (conv1): Conv2d(128, 128, kernel_size=(3, 3), stride=(1, 1), padding=(1, 1))
              (norm2): GroupNorm(32, 128, eps=1e-06, affine=True)
              (dropout): Dropout(p=0.0, inplace=False)
              (conv2): Conv2d(128, 128, kernel_size=(3, 3), stride=(1, 1), padding=(1, 1))
            )
          )
          (attn): ModuleList()
        )
        (1): Module(
          (block): ModuleList(
            (0): ResnetBlock(
              (norm1): GroupNorm(32, 512, eps=1e-06, affine=True)
              (conv1): Conv2d(512, 256, kernel_size=(3, 3), stride=(1, 1), padding=(1, 1))
              (norm2): GroupNorm(32, 256, eps=1e-06, affine=True)
              (dropout): Dropout(p=0.0, inplace=False)
              (conv2): Conv2d(256, 256, kernel_size=(3, 3), stride=(1, 1), padding=(1, 1))
              (nin_shortcut): Conv2d(512, 256, kernel_size=(1, 1), stride=(1, 1))
            )
            (1-2): 2 x ResnetBlock(
              (norm1): GroupNorm(32, 256, eps=1e-06, affine=True)
              (conv1): Conv2d(256, 256, kernel_size=(3, 3), stride=(1, 1), padding=(1, 1))
              (norm2): GroupNorm(32, 256, eps=1e-06, affine=True)
              (dropout): Dropout(p=0.0, inplace=False)
              (conv2): Conv2d(256, 256, kernel_size=(3, 3), stride=(1, 1), padding=(1, 1))
            )
          )
          (attn): ModuleList()
          (upsample): Upsample(
            (conv): Conv2d(256, 256, kernel_size=(3, 3), stride=(1, 1), padding=(1, 1))
          )
        )
        (2-3): 2 x Module(
          (block): ModuleList(
            (0-2): 3 x ResnetBlock(
              (norm1): GroupNorm(32, 512, eps=1e-06, affine=True)
              (conv1): Conv2d(512, 512, kernel_size=(3, 3), stride=(1, 1), padding=(1, 1))
              (norm2): GroupNorm(32, 512, eps=1e-06, affine=True)
              (dropout): Dropout(p=0.0, inplace=False)
              (conv2): Conv2d(512, 512, kernel_size=(3, 3), stride=(1, 1), padding=(1, 1))
            )
          )
          (attn): ModuleList()
          (upsample): Upsample(
            (conv): Conv2d(512, 512, kernel_size=(3, 3), stride=(1, 1), padding=(1, 1))
          )
        )
      )
      (norm_out): GroupNorm(32, 128, eps=1e-06, affine=True)
      (conv_out): Conv2d(128, 1, kernel_size=(3, 3), stride=(1, 1), padding=(1, 1))
    )
    (quant_conv): Conv2d(2, 2, kernel_size=(1, 1), stride=(1, 1))
    (post_quant_conv): Conv2d(1, 1, kernel_size=(1, 1), stride=(1, 1))
  )
),)
Reached end on node 2 with result (DistributedDataParallel(
  (module): AutoencoderKL(
    (encoder): Encoder(
      (conv_in): Conv2d(1, 128, kernel_size=(3, 3), stride=(1, 1), padding=(1, 1))
      (down): ModuleList(
        (0): Module(
          (block): ModuleList(
            (0-1): 2 x ResnetBlock(
              (norm1): GroupNorm(32, 128, eps=1e-06, affine=True)
              (conv1): Conv2d(128, 128, kernel_size=(3, 3), stride=(1, 1), padding=(1, 1))
              (norm2): GroupNorm(32, 128, eps=1e-06, affine=True)
              (dropout): Dropout(p=0.0, inplace=False)
              (conv2): Conv2d(128, 128, kernel_size=(3, 3), stride=(1, 1), padding=(1, 1))
            )
          )
          (attn): ModuleList()
          (downsample): Downsample(
            (conv): Conv2d(128, 128, kernel_size=(3, 3), stride=(2, 2))
          )
        )
        (1): Module(
          (block): ModuleList(
            (0): ResnetBlock(
              (norm1): GroupNorm(32, 128, eps=1e-06, affine=True)
              (conv1): Conv2d(128, 256, kernel_size=(3, 3), stride=(1, 1), padding=(1, 1))
              (norm2): GroupNorm(32, 256, eps=1e-06, affine=True)
              (dropout): Dropout(p=0.0, inplace=False)
              (conv2): Conv2d(256, 256, kernel_size=(3, 3), stride=(1, 1), padding=(1, 1))
              (nin_shortcut): Conv2d(128, 256, kernel_size=(1, 1), stride=(1, 1))
            )
            (1): ResnetBlock(
              (norm1): GroupNorm(32, 256, eps=1e-06, affine=True)
              (conv1): Conv2d(256, 256, kernel_size=(3, 3), stride=(1, 1), padding=(1, 1))
              (norm2): GroupNorm(32, 256, eps=1e-06, affine=True)
              (dropout): Dropout(p=0.0, inplace=False)
              (conv2): Conv2d(256, 256, kernel_size=(3, 3), stride=(1, 1), padding=(1, 1))
            )
          )
          (attn): ModuleList()
          (downsample): Downsample(
            (conv): Conv2d(256, 256, kernel_size=(3, 3), stride=(2, 2))
          )
        )
        (2): Module(
          (block): ModuleList(
            (0): ResnetBlock(
              (norm1): GroupNorm(32, 256, eps=1e-06, affine=True)
              (conv1): Conv2d(256, 512, kernel_size=(3, 3), stride=(1, 1), padding=(1, 1))
              (norm2): GroupNorm(32, 512, eps=1e-06, affine=True)
              (dropout): Dropout(p=0.0, inplace=False)
              (conv2): Conv2d(512, 512, kernel_size=(3, 3), stride=(1, 1), padding=(1, 1))
              (nin_shortcut): Conv2d(256, 512, kernel_size=(1, 1), stride=(1, 1))
            )
            (1): ResnetBlock(
              (norm1): GroupNorm(32, 512, eps=1e-06, affine=True)
              (conv1): Conv2d(512, 512, kernel_size=(3, 3), stride=(1, 1), padding=(1, 1))
              (norm2): GroupNorm(32, 512, eps=1e-06, affine=True)
              (dropout): Dropout(p=0.0, inplace=False)
              (conv2): Conv2d(512, 512, kernel_size=(3, 3), stride=(1, 1), padding=(1, 1))
            )
          )
          (attn): ModuleList()
          (downsample): Downsample(
            (conv): Conv2d(512, 512, kernel_size=(3, 3), stride=(2, 2))
          )
        )
        (3): Module(
          (block): ModuleList(
            (0-1): 2 x ResnetBlock(
              (norm1): GroupNorm(32, 512, eps=1e-06, affine=True)
              (conv1): Conv2d(512, 512, kernel_size=(3, 3), stride=(1, 1), padding=(1, 1))
              (norm2): GroupNorm(32, 512, eps=1e-06, affine=True)
              (dropout): Dropout(p=0.0, inplace=False)
              (conv2): Conv2d(512, 512, kernel_size=(3, 3), stride=(1, 1), padding=(1, 1))
            )
          )
          (attn): ModuleList()
        )
      )
      (mid): Module(
        (block_1): ResnetBlock(
          (norm1): GroupNorm(32, 512, eps=1e-06, affine=True)
          (conv1): Conv2d(512, 512, kernel_size=(3, 3), stride=(1, 1), padding=(1, 1))
          (norm2): GroupNorm(32, 512, eps=1e-06, affine=True)
          (dropout): Dropout(p=0.0, inplace=False)
          (conv2): Conv2d(512, 512, kernel_size=(3, 3), stride=(1, 1), padding=(1, 1))
        )
        (attn_1): AttnBlock(
          (norm): GroupNorm(32, 512, eps=1e-06, affine=True)
          (q): Conv2d(512, 512, kernel_size=(1, 1), stride=(1, 1))
          (k): Conv2d(512, 512, kernel_size=(1, 1), stride=(1, 1))
          (v): Conv2d(512, 512, kernel_size=(1, 1), stride=(1, 1))
          (proj_out): Conv2d(512, 512, kernel_size=(1, 1), stride=(1, 1))
        )
        (block_2): ResnetBlock(
          (norm1): GroupNorm(32, 512, eps=1e-06, affine=True)
          (conv1): Conv2d(512, 512, kernel_size=(3, 3), stride=(1, 1), padding=(1, 1))
          (norm2): GroupNorm(32, 512, eps=1e-06, affine=True)
          (dropout): Dropout(p=0.0, inplace=False)
          (conv2): Conv2d(512, 512, kernel_size=(3, 3), stride=(1, 1), padding=(1, 1))
        )
      )
      (norm_out): GroupNorm(32, 512, eps=1e-06, affine=True)
      (conv_out): Conv2d(512, 2, kernel_size=(3, 3), stride=(1, 1), padding=(1, 1))
    )
    (decoder): Decoder(
      (conv_in): Conv2d(1, 512, kernel_size=(3, 3), stride=(1, 1), padding=(1, 1))
      (mid): Module(
        (block_1): ResnetBlock(
          (norm1): GroupNorm(32, 512, eps=1e-06, affine=True)
          (conv1): Conv2d(512, 512, kernel_size=(3, 3), stride=(1, 1), padding=(1, 1))
          (norm2): GroupNorm(32, 512, eps=1e-06, affine=True)
          (dropout): Dropout(p=0.0, inplace=False)
          (conv2): Conv2d(512, 512, kernel_size=(3, 3), stride=(1, 1), padding=(1, 1))
        )
        (attn_1): AttnBlock(
          (norm): GroupNorm(32, 512, eps=1e-06, affine=True)
          (q): Conv2d(512, 512, kernel_size=(1, 1), stride=(1, 1))
          (k): Conv2d(512, 512, kernel_size=(1, 1), stride=(1, 1))
          (v): Conv2d(512, 512, kernel_size=(1, 1), stride=(1, 1))
          (proj_out): Conv2d(512, 512, kernel_size=(1, 1), stride=(1, 1))
        )
        (block_2): ResnetBlock(
          (norm1): GroupNorm(32, 512, eps=1e-06, affine=True)
          (conv1): Conv2d(512, 512, kernel_size=(3, 3), stride=(1, 1), padding=(1, 1))
          (norm2): GroupNorm(32, 512, eps=1e-06, affine=True)
          (dropout): Dropout(p=0.0, inplace=False)
          (conv2): Conv2d(512, 512, kernel_size=(3, 3), stride=(1, 1), padding=(1, 1))
        )
      )
      (up): ModuleList(
        (0): Module(
          (block): ModuleList(
            (0): ResnetBlock(
              (norm1): GroupNorm(32, 256, eps=1e-06, affine=True)
              (conv1): Conv2d(256, 128, kernel_size=(3, 3), stride=(1, 1), padding=(1, 1))
              (norm2): GroupNorm(32, 128, eps=1e-06, affine=True)
              (dropout): Dropout(p=0.0, inplace=False)
              (conv2): Conv2d(128, 128, kernel_size=(3, 3), stride=(1, 1), padding=(1, 1))
              (nin_shortcut): Conv2d(256, 128, kernel_size=(1, 1), stride=(1, 1))
            )
            (1-2): 2 x ResnetBlock(
              (norm1): GroupNorm(32, 128, eps=1e-06, affine=True)
              (conv1): Conv2d(128, 128, kernel_size=(3, 3), stride=(1, 1), padding=(1, 1))
              (norm2): GroupNorm(32, 128, eps=1e-06, affine=True)
              (dropout): Dropout(p=0.0, inplace=False)
              (conv2): Conv2d(128, 128, kernel_size=(3, 3), stride=(1, 1), padding=(1, 1))
            )
          )
          (attn): ModuleList()
        )
        (1): Module(
          (block): ModuleList(
            (0): ResnetBlock(
              (norm1): GroupNorm(32, 512, eps=1e-06, affine=True)
              (conv1): Conv2d(512, 256, kernel_size=(3, 3), stride=(1, 1), padding=(1, 1))
              (norm2): GroupNorm(32, 256, eps=1e-06, affine=True)
              (dropout): Dropout(p=0.0, inplace=False)
              (conv2): Conv2d(256, 256, kernel_size=(3, 3), stride=(1, 1), padding=(1, 1))
              (nin_shortcut): Conv2d(512, 256, kernel_size=(1, 1), stride=(1, 1))
            )
            (1-2): 2 x ResnetBlock(
              (norm1): GroupNorm(32, 256, eps=1e-06, affine=True)
              (conv1): Conv2d(256, 256, kernel_size=(3, 3), stride=(1, 1), padding=(1, 1))
              (norm2): GroupNorm(32, 256, eps=1e-06, affine=True)
              (dropout): Dropout(p=0.0, inplace=False)
              (conv2): Conv2d(256, 256, kernel_size=(3, 3), stride=(1, 1), padding=(1, 1))
            )
          )
          (attn): ModuleList()
          (upsample): Upsample(
            (conv): Conv2d(256, 256, kernel_size=(3, 3), stride=(1, 1), padding=(1, 1))
          )
        )
        (2-3): 2 x Module(
          (block): ModuleList(
            (0-2): 3 x ResnetBlock(
              (norm1): GroupNorm(32, 512, eps=1e-06, affine=True)
              (conv1): Conv2d(512, 512, kernel_size=(3, 3), stride=(1, 1), padding=(1, 1))
              (norm2): GroupNorm(32, 512, eps=1e-06, affine=True)
              (dropout): Dropout(p=0.0, inplace=False)
              (conv2): Conv2d(512, 512, kernel_size=(3, 3), stride=(1, 1), padding=(1, 1))
            )
          )
          (attn): ModuleList()
          (upsample): Upsample(
            (conv): Conv2d(512, 512, kernel_size=(3, 3), stride=(1, 1), padding=(1, 1))
          )
        )
      )
      (norm_out): GroupNorm(32, 128, eps=1e-06, affine=True)
      (conv_out): Conv2d(128, 1, kernel_size=(3, 3), stride=(1, 1), padding=(1, 1))
    )
    (quant_conv): Conv2d(2, 2, kernel_size=(1, 1), stride=(1, 1))
    (post_quant_conv): Conv2d(1, 1, kernel_size=(1, 1), stride=(1, 1))
  )
),)
Reached end on node 5 with result (DistributedDataParallel(
  (module): AutoencoderKL(
    (encoder): Encoder(
      (conv_in): Conv2d(1, 128, kernel_size=(3, 3), stride=(1, 1), padding=(1, 1))
      (down): ModuleList(
        (0): Module(
          (block): ModuleList(
            (0-1): 2 x ResnetBlock(
              (norm1): GroupNorm(32, 128, eps=1e-06, affine=True)
              (conv1): Conv2d(128, 128, kernel_size=(3, 3), stride=(1, 1), padding=(1, 1))
              (norm2): GroupNorm(32, 128, eps=1e-06, affine=True)
              (dropout): Dropout(p=0.0, inplace=False)
              (conv2): Conv2d(128, 128, kernel_size=(3, 3), stride=(1, 1), padding=(1, 1))
            )
          )
          (attn): ModuleList()
          (downsample): Downsample(
            (conv): Conv2d(128, 128, kernel_size=(3, 3), stride=(2, 2))
          )
        )
        (1): Module(
          (block): ModuleList(
            (0): ResnetBlock(
              (norm1): GroupNorm(32, 128, eps=1e-06, affine=True)
              (conv1): Conv2d(128, 256, kernel_size=(3, 3), stride=(1, 1), padding=(1, 1))
              (norm2): GroupNorm(32, 256, eps=1e-06, affine=True)
              (dropout): Dropout(p=0.0, inplace=False)
              (conv2): Conv2d(256, 256, kernel_size=(3, 3), stride=(1, 1), padding=(1, 1))
              (nin_shortcut): Conv2d(128, 256, kernel_size=(1, 1), stride=(1, 1))
            )
            (1): ResnetBlock(
              (norm1): GroupNorm(32, 256, eps=1e-06, affine=True)
              (conv1): Conv2d(256, 256, kernel_size=(3, 3), stride=(1, 1), padding=(1, 1))
              (norm2): GroupNorm(32, 256, eps=1e-06, affine=True)
              (dropout): Dropout(p=0.0, inplace=False)
              (conv2): Conv2d(256, 256, kernel_size=(3, 3), stride=(1, 1), padding=(1, 1))
            )
          )
          (attn): ModuleList()
          (downsample): Downsample(
            (conv): Conv2d(256, 256, kernel_size=(3, 3), stride=(2, 2))
          )
        )
        (2): Module(
          (block): ModuleList(
            (0): ResnetBlock(
              (norm1): GroupNorm(32, 256, eps=1e-06, affine=True)
              (conv1): Conv2d(256, 512, kernel_size=(3, 3), stride=(1, 1), padding=(1, 1))
              (norm2): GroupNorm(32, 512, eps=1e-06, affine=True)
              (dropout): Dropout(p=0.0, inplace=False)
              (conv2): Conv2d(512, 512, kernel_size=(3, 3), stride=(1, 1), padding=(1, 1))
              (nin_shortcut): Conv2d(256, 512, kernel_size=(1, 1), stride=(1, 1))
            )
            (1): ResnetBlock(
              (norm1): GroupNorm(32, 512, eps=1e-06, affine=True)
              (conv1): Conv2d(512, 512, kernel_size=(3, 3), stride=(1, 1), padding=(1, 1))
              (norm2): GroupNorm(32, 512, eps=1e-06, affine=True)
              (dropout): Dropout(p=0.0, inplace=False)
              (conv2): Conv2d(512, 512, kernel_size=(3, 3), stride=(1, 1), padding=(1, 1))
            )
          )
          (attn): ModuleList()
          (downsample): Downsample(
            (conv): Conv2d(512, 512, kernel_size=(3, 3), stride=(2, 2))
          )
        )
        (3): Module(
          (block): ModuleList(
            (0-1): 2 x ResnetBlock(
              (norm1): GroupNorm(32, 512, eps=1e-06, affine=True)
              (conv1): Conv2d(512, 512, kernel_size=(3, 3), stride=(1, 1), padding=(1, 1))
              (norm2): GroupNorm(32, 512, eps=1e-06, affine=True)
              (dropout): Dropout(p=0.0, inplace=False)
              (conv2): Conv2d(512, 512, kernel_size=(3, 3), stride=(1, 1), padding=(1, 1))
            )
          )
          (attn): ModuleList()
        )
      )
      (mid): Module(
        (block_1): ResnetBlock(
          (norm1): GroupNorm(32, 512, eps=1e-06, affine=True)
          (conv1): Conv2d(512, 512, kernel_size=(3, 3), stride=(1, 1), padding=(1, 1))
          (norm2): GroupNorm(32, 512, eps=1e-06, affine=True)
          (dropout): Dropout(p=0.0, inplace=False)
          (conv2): Conv2d(512, 512, kernel_size=(3, 3), stride=(1, 1), padding=(1, 1))
        )
        (attn_1): AttnBlock(
          (norm): GroupNorm(32, 512, eps=1e-06, affine=True)
          (q): Conv2d(512, 512, kernel_size=(1, 1), stride=(1, 1))
          (k): Conv2d(512, 512, kernel_size=(1, 1), stride=(1, 1))
          (v): Conv2d(512, 512, kernel_size=(1, 1), stride=(1, 1))
          (proj_out): Conv2d(512, 512, kernel_size=(1, 1), stride=(1, 1))
        )
        (block_2): ResnetBlock(
          (norm1): GroupNorm(32, 512, eps=1e-06, affine=True)
          (conv1): Conv2d(512, 512, kernel_size=(3, 3), stride=(1, 1), padding=(1, 1))
          (norm2): GroupNorm(32, 512, eps=1e-06, affine=True)
          (dropout): Dropout(p=0.0, inplace=False)
          (conv2): Conv2d(512, 512, kernel_size=(3, 3), stride=(1, 1), padding=(1, 1))
        )
      )
      (norm_out): GroupNorm(32, 512, eps=1e-06, affine=True)
      (conv_out): Conv2d(512, 2, kernel_size=(3, 3), stride=(1, 1), padding=(1, 1))
    )
    (decoder): Decoder(
      (conv_in): Conv2d(1, 512, kernel_size=(3, 3), stride=(1, 1), padding=(1, 1))
      (mid): Module(
        (block_1): ResnetBlock(
          (norm1): GroupNorm(32, 512, eps=1e-06, affine=True)
          (conv1): Conv2d(512, 512, kernel_size=(3, 3), stride=(1, 1), padding=(1, 1))
          (norm2): GroupNorm(32, 512, eps=1e-06, affine=True)
          (dropout): Dropout(p=0.0, inplace=False)
          (conv2): Conv2d(512, 512, kernel_size=(3, 3), stride=(1, 1), padding=(1, 1))
        )
        (attn_1): AttnBlock(
          (norm): GroupNorm(32, 512, eps=1e-06, affine=True)
          (q): Conv2d(512, 512, kernel_size=(1, 1), stride=(1, 1))
          (k): Conv2d(512, 512, kernel_size=(1, 1), stride=(1, 1))
          (v): Conv2d(512, 512, kernel_size=(1, 1), stride=(1, 1))
          (proj_out): Conv2d(512, 512, kernel_size=(1, 1), stride=(1, 1))
        )
        (block_2): ResnetBlock(
          (norm1): GroupNorm(32, 512, eps=1e-06, affine=True)
          (conv1): Conv2d(512, 512, kernel_size=(3, 3), stride=(1, 1), padding=(1, 1))
          (norm2): GroupNorm(32, 512, eps=1e-06, affine=True)
          (dropout): Dropout(p=0.0, inplace=False)
          (conv2): Conv2d(512, 512, kernel_size=(3, 3), stride=(1, 1), padding=(1, 1))
        )
      )
      (up): ModuleList(
        (0): Module(
          (block): ModuleList(
            (0): ResnetBlock(
              (norm1): GroupNorm(32, 256, eps=1e-06, affine=True)
              (conv1): Conv2d(256, 128, kernel_size=(3, 3), stride=(1, 1), padding=(1, 1))
              (norm2): GroupNorm(32, 128, eps=1e-06, affine=True)
              (dropout): Dropout(p=0.0, inplace=False)
              (conv2): Conv2d(128, 128, kernel_size=(3, 3), stride=(1, 1), padding=(1, 1))
              (nin_shortcut): Conv2d(256, 128, kernel_size=(1, 1), stride=(1, 1))
            )
            (1-2): 2 x ResnetBlock(
              (norm1): GroupNorm(32, 128, eps=1e-06, affine=True)
              (conv1): Conv2d(128, 128, kernel_size=(3, 3), stride=(1, 1), padding=(1, 1))
              (norm2): GroupNorm(32, 128, eps=1e-06, affine=True)
              (dropout): Dropout(p=0.0, inplace=False)
              (conv2): Conv2d(128, 128, kernel_size=(3, 3), stride=(1, 1), padding=(1, 1))
            )
          )
          (attn): ModuleList()
        )
        (1): Module(
          (block): ModuleList(
            (0): ResnetBlock(
              (norm1): GroupNorm(32, 512, eps=1e-06, affine=True)
              (conv1): Conv2d(512, 256, kernel_size=(3, 3), stride=(1, 1), padding=(1, 1))
              (norm2): GroupNorm(32, 256, eps=1e-06, affine=True)
              (dropout): Dropout(p=0.0, inplace=False)
              (conv2): Conv2d(256, 256, kernel_size=(3, 3), stride=(1, 1), padding=(1, 1))
              (nin_shortcut): Conv2d(512, 256, kernel_size=(1, 1), stride=(1, 1))
            )
            (1-2): 2 x ResnetBlock(
              (norm1): GroupNorm(32, 256, eps=1e-06, affine=True)
              (conv1): Conv2d(256, 256, kernel_size=(3, 3), stride=(1, 1), padding=(1, 1))
              (norm2): GroupNorm(32, 256, eps=1e-06, affine=True)
              (dropout): Dropout(p=0.0, inplace=False)
              (conv2): Conv2d(256, 256, kernel_size=(3, 3), stride=(1, 1), padding=(1, 1))
            )
          )
          (attn): ModuleList()
          (upsample): Upsample(
            (conv): Conv2d(256, 256, kernel_size=(3, 3), stride=(1, 1), padding=(1, 1))
          )
        )
        (2-3): 2 x Module(
          (block): ModuleList(
            (0-2): 3 x ResnetBlock(
              (norm1): GroupNorm(32, 512, eps=1e-06, affine=True)
              (conv1): Conv2d(512, 512, kernel_size=(3, 3), stride=(1, 1), padding=(1, 1))
              (norm2): GroupNorm(32, 512, eps=1e-06, affine=True)
              (dropout): Dropout(p=0.0, inplace=False)
              (conv2): Conv2d(512, 512, kernel_size=(3, 3), stride=(1, 1), padding=(1, 1))
            )
          )
          (attn): ModuleList()
          (upsample): Upsample(
            (conv): Conv2d(512, 512, kernel_size=(3, 3), stride=(1, 1), padding=(1, 1))
          )
        )
      )
      (norm_out): GroupNorm(32, 128, eps=1e-06, affine=True)
      (conv_out): Conv2d(128, 1, kernel_size=(3, 3), stride=(1, 1), padding=(1, 1))
    )
    (quant_conv): Conv2d(2, 2, kernel_size=(1, 1), stride=(1, 1))
    (post_quant_conv): Conv2d(1, 1, kernel_size=(1, 1), stride=(1, 1))
  )
),)
Reached end on node 0 with result (DistributedDataParallel(
  (module): AutoencoderKL(
    (encoder): Encoder(
      (conv_in): Conv2d(1, 128, kernel_size=(3, 3), stride=(1, 1), padding=(1, 1))
      (down): ModuleList(
        (0): Module(
          (block): ModuleList(
            (0-1): 2 x ResnetBlock(
              (norm1): GroupNorm(32, 128, eps=1e-06, affine=True)
              (conv1): Conv2d(128, 128, kernel_size=(3, 3), stride=(1, 1), padding=(1, 1))
              (norm2): GroupNorm(32, 128, eps=1e-06, affine=True)
              (dropout): Dropout(p=0.0, inplace=False)
              (conv2): Conv2d(128, 128, kernel_size=(3, 3), stride=(1, 1), padding=(1, 1))
            )
          )
          (attn): ModuleList()
          (downsample): Downsample(
            (conv): Conv2d(128, 128, kernel_size=(3, 3), stride=(2, 2))
          )
        )
        (1): Module(
          (block): ModuleList(
            (0): ResnetBlock(
              (norm1): GroupNorm(32, 128, eps=1e-06, affine=True)
              (conv1): Conv2d(128, 256, kernel_size=(3, 3), stride=(1, 1), padding=(1, 1))
              (norm2): GroupNorm(32, 256, eps=1e-06, affine=True)
              (dropout): Dropout(p=0.0, inplace=False)
              (conv2): Conv2d(256, 256, kernel_size=(3, 3), stride=(1, 1), padding=(1, 1))
              (nin_shortcut): Conv2d(128, 256, kernel_size=(1, 1), stride=(1, 1))
            )
            (1): ResnetBlock(
              (norm1): GroupNorm(32, 256, eps=1e-06, affine=True)
              (conv1): Conv2d(256, 256, kernel_size=(3, 3), stride=(1, 1), padding=(1, 1))
              (norm2): GroupNorm(32, 256, eps=1e-06, affine=True)
              (dropout): Dropout(p=0.0, inplace=False)
              (conv2): Conv2d(256, 256, kernel_size=(3, 3), stride=(1, 1), padding=(1, 1))
            )
          )
          (attn): ModuleList()
          (downsample): Downsample(
            (conv): Conv2d(256, 256, kernel_size=(3, 3), stride=(2, 2))
          )
        )
        (2): Module(
          (block): ModuleList(
            (0): ResnetBlock(
              (norm1): GroupNorm(32, 256, eps=1e-06, affine=True)
              (conv1): Conv2d(256, 512, kernel_size=(3, 3), stride=(1, 1), padding=(1, 1))
              (norm2): GroupNorm(32, 512, eps=1e-06, affine=True)
              (dropout): Dropout(p=0.0, inplace=False)
              (conv2): Conv2d(512, 512, kernel_size=(3, 3), stride=(1, 1), padding=(1, 1))
              (nin_shortcut): Conv2d(256, 512, kernel_size=(1, 1), stride=(1, 1))
            )
            (1): ResnetBlock(
              (norm1): GroupNorm(32, 512, eps=1e-06, affine=True)
              (conv1): Conv2d(512, 512, kernel_size=(3, 3), stride=(1, 1), padding=(1, 1))
              (norm2): GroupNorm(32, 512, eps=1e-06, affine=True)
              (dropout): Dropout(p=0.0, inplace=False)
              (conv2): Conv2d(512, 512, kernel_size=(3, 3), stride=(1, 1), padding=(1, 1))
            )
          )
          (attn): ModuleList()
          (downsample): Downsample(
            (conv): Conv2d(512, 512, kernel_size=(3, 3), stride=(2, 2))
          )
        )
        (3): Module(
          (block): ModuleList(
            (0-1): 2 x ResnetBlock(
              (norm1): GroupNorm(32, 512, eps=1e-06, affine=True)
              (conv1): Conv2d(512, 512, kernel_size=(3, 3), stride=(1, 1), padding=(1, 1))
              (norm2): GroupNorm(32, 512, eps=1e-06, affine=True)
              (dropout): Dropout(p=0.0, inplace=False)
              (conv2): Conv2d(512, 512, kernel_size=(3, 3), stride=(1, 1), padding=(1, 1))
            )
          )
          (attn): ModuleList()
        )
      )
      (mid): Module(
        (block_1): ResnetBlock(
          (norm1): GroupNorm(32, 512, eps=1e-06, affine=True)
          (conv1): Conv2d(512, 512, kernel_size=(3, 3), stride=(1, 1), padding=(1, 1))
          (norm2): GroupNorm(32, 512, eps=1e-06, affine=True)
          (dropout): Dropout(p=0.0, inplace=False)
          (conv2): Conv2d(512, 512, kernel_size=(3, 3), stride=(1, 1), padding=(1, 1))
        )
        (attn_1): AttnBlock(
          (norm): GroupNorm(32, 512, eps=1e-06, affine=True)
          (q): Conv2d(512, 512, kernel_size=(1, 1), stride=(1, 1))
          (k): Conv2d(512, 512, kernel_size=(1, 1), stride=(1, 1))
          (v): Conv2d(512, 512, kernel_size=(1, 1), stride=(1, 1))
          (proj_out): Conv2d(512, 512, kernel_size=(1, 1), stride=(1, 1))
        )
        (block_2): ResnetBlock(
          (norm1): GroupNorm(32, 512, eps=1e-06, affine=True)
          (conv1): Conv2d(512, 512, kernel_size=(3, 3), stride=(1, 1), padding=(1, 1))
          (norm2): GroupNorm(32, 512, eps=1e-06, affine=True)
          (dropout): Dropout(p=0.0, inplace=False)
          (conv2): Conv2d(512, 512, kernel_size=(3, 3), stride=(1, 1), padding=(1, 1))
        )
      )
      (norm_out): GroupNorm(32, 512, eps=1e-06, affine=True)
      (conv_out): Conv2d(512, 2, kernel_size=(3, 3), stride=(1, 1), padding=(1, 1))
    )
    (decoder): Decoder(
      (conv_in): Conv2d(1, 512, kernel_size=(3, 3), stride=(1, 1), padding=(1, 1))
      (mid): Module(
        (block_1): ResnetBlock(
          (norm1): GroupNorm(32, 512, eps=1e-06, affine=True)
          (conv1): Conv2d(512, 512, kernel_size=(3, 3), stride=(1, 1), padding=(1, 1))
          (norm2): GroupNorm(32, 512, eps=1e-06, affine=True)
          (dropout): Dropout(p=0.0, inplace=False)
          (conv2): Conv2d(512, 512, kernel_size=(3, 3), stride=(1, 1), padding=(1, 1))
        )
        (attn_1): AttnBlock(
          (norm): GroupNorm(32, 512, eps=1e-06, affine=True)
          (q): Conv2d(512, 512, kernel_size=(1, 1), stride=(1, 1))
          (k): Conv2d(512, 512, kernel_size=(1, 1), stride=(1, 1))
          (v): Conv2d(512, 512, kernel_size=(1, 1), stride=(1, 1))
          (proj_out): Conv2d(512, 512, kernel_size=(1, 1), stride=(1, 1))
        )
        (block_2): ResnetBlock(
          (norm1): GroupNorm(32, 512, eps=1e-06, affine=True)
          (conv1): Conv2d(512, 512, kernel_size=(3, 3), stride=(1, 1), padding=(1, 1))
          (norm2): GroupNorm(32, 512, eps=1e-06, affine=True)
          (dropout): Dropout(p=0.0, inplace=False)
          (conv2): Conv2d(512, 512, kernel_size=(3, 3), stride=(1, 1), padding=(1, 1))
        )
      )
      (up): ModuleList(
        (0): Module(
          (block): ModuleList(
            (0): ResnetBlock(
              (norm1): GroupNorm(32, 256, eps=1e-06, affine=True)
              (conv1): Conv2d(256, 128, kernel_size=(3, 3), stride=(1, 1), padding=(1, 1))
              (norm2): GroupNorm(32, 128, eps=1e-06, affine=True)
              (dropout): Dropout(p=0.0, inplace=False)
              (conv2): Conv2d(128, 128, kernel_size=(3, 3), stride=(1, 1), padding=(1, 1))
              (nin_shortcut): Conv2d(256, 128, kernel_size=(1, 1), stride=(1, 1))
            )
            (1-2): 2 x ResnetBlock(
              (norm1): GroupNorm(32, 128, eps=1e-06, affine=True)
              (conv1): Conv2d(128, 128, kernel_size=(3, 3), stride=(1, 1), padding=(1, 1))
              (norm2): GroupNorm(32, 128, eps=1e-06, affine=True)
              (dropout): Dropout(p=0.0, inplace=False)
              (conv2): Conv2d(128, 128, kernel_size=(3, 3), stride=(1, 1), padding=(1, 1))
            )
          )
          (attn): ModuleList()
        )
        (1): Module(
          (block): ModuleList(
            (0): ResnetBlock(
              (norm1): GroupNorm(32, 512, eps=1e-06, affine=True)
              (conv1): Conv2d(512, 256, kernel_size=(3, 3), stride=(1, 1), padding=(1, 1))
              (norm2): GroupNorm(32, 256, eps=1e-06, affine=True)
              (dropout): Dropout(p=0.0, inplace=False)
              (conv2): Conv2d(256, 256, kernel_size=(3, 3), stride=(1, 1), padding=(1, 1))
              (nin_shortcut): Conv2d(512, 256, kernel_size=(1, 1), stride=(1, 1))
            )
            (1-2): 2 x ResnetBlock(
              (norm1): GroupNorm(32, 256, eps=1e-06, affine=True)
              (conv1): Conv2d(256, 256, kernel_size=(3, 3), stride=(1, 1), padding=(1, 1))
              (norm2): GroupNorm(32, 256, eps=1e-06, affine=True)
              (dropout): Dropout(p=0.0, inplace=False)
              (conv2): Conv2d(256, 256, kernel_size=(3, 3), stride=(1, 1), padding=(1, 1))
            )
          )
          (attn): ModuleList()
          (upsample): Upsample(
            (conv): Conv2d(256, 256, kernel_size=(3, 3), stride=(1, 1), padding=(1, 1))
          )
        )
        (2-3): 2 x Module(
          (block): ModuleList(
            (0-2): 3 x ResnetBlock(
              (norm1): GroupNorm(32, 512, eps=1e-06, affine=True)
              (conv1): Conv2d(512, 512, kernel_size=(3, 3), stride=(1, 1), padding=(1, 1))
              (norm2): GroupNorm(32, 512, eps=1e-06, affine=True)
              (dropout): Dropout(p=0.0, inplace=False)
              (conv2): Conv2d(512, 512, kernel_size=(3, 3), stride=(1, 1), padding=(1, 1))
            )
          )
          (attn): ModuleList()
          (upsample): Upsample(
            (conv): Conv2d(512, 512, kernel_size=(3, 3), stride=(1, 1), padding=(1, 1))
          )
        )
      )
      (norm_out): GroupNorm(32, 128, eps=1e-06, affine=True)
      (conv_out): Conv2d(128, 1, kernel_size=(3, 3), stride=(1, 1), padding=(1, 1))
    )
    (quant_conv): Conv2d(2, 2, kernel_size=(1, 1), stride=(1, 1))
    (post_quant_conv): Conv2d(1, 1, kernel_size=(1, 1), stride=(1, 1))
  )
),)
=> Preparing opt_ae 
=> Preparing opt_ae 
Reached end on node 1 with result (DistributedDataParallel(
  (module): AutoencoderKL(
    (encoder): Encoder(
      (conv_in): Conv2d(1, 128, kernel_size=(3, 3), stride=(1, 1), padding=(1, 1))
      (down): ModuleList(
        (0): Module(
          (block): ModuleList(
            (0-1): 2 x ResnetBlock(
              (norm1): GroupNorm(32, 128, eps=1e-06, affine=True)
              (conv1): Conv2d(128, 128, kernel_size=(3, 3), stride=(1, 1), padding=(1, 1))
              (norm2): GroupNorm(32, 128, eps=1e-06, affine=True)
              (dropout): Dropout(p=0.0, inplace=False)
              (conv2): Conv2d(128, 128, kernel_size=(3, 3), stride=(1, 1), padding=(1, 1))
            )
          )
          (attn): ModuleList()
          (downsample): Downsample(
            (conv): Conv2d(128, 128, kernel_size=(3, 3), stride=(2, 2))
          )
        )
        (1): Module(
          (block): ModuleList(
            (0): ResnetBlock(
              (norm1): GroupNorm(32, 128, eps=1e-06, affine=True)
              (conv1): Conv2d(128, 256, kernel_size=(3, 3), stride=(1, 1), padding=(1, 1))
              (norm2): GroupNorm(32, 256, eps=1e-06, affine=True)
              (dropout): Dropout(p=0.0, inplace=False)
              (conv2): Conv2d(256, 256, kernel_size=(3, 3), stride=(1, 1), padding=(1, 1))
              (nin_shortcut): Conv2d(128, 256, kernel_size=(1, 1), stride=(1, 1))
            )
            (1): ResnetBlock(
              (norm1): GroupNorm(32, 256, eps=1e-06, affine=True)
              (conv1): Conv2d(256, 256, kernel_size=(3, 3), stride=(1, 1), padding=(1, 1))
              (norm2): GroupNorm(32, 256, eps=1e-06, affine=True)
              (dropout): Dropout(p=0.0, inplace=False)
              (conv2): Conv2d(256, 256, kernel_size=(3, 3), stride=(1, 1), padding=(1, 1))
            )
          )
          (attn): ModuleList()
          (downsample): Downsample(
            (conv): Conv2d(256, 256, kernel_size=(3, 3), stride=(2, 2))
          )
        )
        (2): Module(
          (block): ModuleList(
            (0): ResnetBlock(
              (norm1): GroupNorm(32, 256, eps=1e-06, affine=True)
              (conv1): Conv2d(256, 512, kernel_size=(3, 3), stride=(1, 1), padding=(1, 1))
              (norm2): GroupNorm(32, 512, eps=1e-06, affine=True)
              (dropout): Dropout(p=0.0, inplace=False)
              (conv2): Conv2d(512, 512, kernel_size=(3, 3), stride=(1, 1), padding=(1, 1))
              (nin_shortcut): Conv2d(256, 512, kernel_size=(1, 1), stride=(1, 1))
            )
            (1): ResnetBlock(
              (norm1): GroupNorm(32, 512, eps=1e-06, affine=True)
              (conv1): Conv2d(512, 512, kernel_size=(3, 3), stride=(1, 1), padding=(1, 1))
              (norm2): GroupNorm(32, 512, eps=1e-06, affine=True)
              (dropout): Dropout(p=0.0, inplace=False)
              (conv2): Conv2d(512, 512, kernel_size=(3, 3), stride=(1, 1), padding=(1, 1))
            )
          )
          (attn): ModuleList()
          (downsample): Downsample(
            (conv): Conv2d(512, 512, kernel_size=(3, 3), stride=(2, 2))
          )
        )
        (3): Module(
          (block): ModuleList(
            (0-1): 2 x ResnetBlock(
              (norm1): GroupNorm(32, 512, eps=1e-06, affine=True)
              (conv1): Conv2d(512, 512, kernel_size=(3, 3), stride=(1, 1), padding=(1, 1))
              (norm2): GroupNorm(32, 512, eps=1e-06, affine=True)
              (dropout): Dropout(p=0.0, inplace=False)
              (conv2): Conv2d(512, 512, kernel_size=(3, 3), stride=(1, 1), padding=(1, 1))
            )
          )
          (attn): ModuleList()
        )
      )
      (mid): Module(
        (block_1): ResnetBlock(
          (norm1): GroupNorm(32, 512, eps=1e-06, affine=True)
          (conv1): Conv2d(512, 512, kernel_size=(3, 3), stride=(1, 1), padding=(1, 1))
          (norm2): GroupNorm(32, 512, eps=1e-06, affine=True)
          (dropout): Dropout(p=0.0, inplace=False)
          (conv2): Conv2d(512, 512, kernel_size=(3, 3), stride=(1, 1), padding=(1, 1))
        )
        (attn_1): AttnBlock(
          (norm): GroupNorm(32, 512, eps=1e-06, affine=True)
          (q): Conv2d(512, 512, kernel_size=(1, 1), stride=(1, 1))
          (k): Conv2d(512, 512, kernel_size=(1, 1), stride=(1, 1))
          (v): Conv2d(512, 512, kernel_size=(1, 1), stride=(1, 1))
          (proj_out): Conv2d(512, 512, kernel_size=(1, 1), stride=(1, 1))
        )
        (block_2): ResnetBlock(
          (norm1): GroupNorm(32, 512, eps=1e-06, affine=True)
          (conv1): Conv2d(512, 512, kernel_size=(3, 3), stride=(1, 1), padding=(1, 1))
          (norm2): GroupNorm(32, 512, eps=1e-06, affine=True)
          (dropout): Dropout(p=0.0, inplace=False)
          (conv2): Conv2d(512, 512, kernel_size=(3, 3), stride=(1, 1), padding=(1, 1))
        )
      )
      (norm_out): GroupNorm(32, 512, eps=1e-06, affine=True)
      (conv_out): Conv2d(512, 2, kernel_size=(3, 3), stride=(1, 1), padding=(1, 1))
    )
    (decoder): Decoder(
      (conv_in): Conv2d(1, 512, kernel_size=(3, 3), stride=(1, 1), padding=(1, 1))
      (mid): Module(
        (block_1): ResnetBlock(
          (norm1): GroupNorm(32, 512, eps=1e-06, affine=True)
          (conv1): Conv2d(512, 512, kernel_size=(3, 3), stride=(1, 1), padding=(1, 1))
          (norm2): GroupNorm(32, 512, eps=1e-06, affine=True)
          (dropout): Dropout(p=0.0, inplace=False)
          (conv2): Conv2d(512, 512, kernel_size=(3, 3), stride=(1, 1), padding=(1, 1))
        )
        (attn_1): AttnBlock(
          (norm): GroupNorm(32, 512, eps=1e-06, affine=True)
          (q): Conv2d(512, 512, kernel_size=(1, 1), stride=(1, 1))
          (k): Conv2d(512, 512, kernel_size=(1, 1), stride=(1, 1))
          (v): Conv2d(512, 512, kernel_size=(1, 1), stride=(1, 1))
          (proj_out): Conv2d(512, 512, kernel_size=(1, 1), stride=(1, 1))
        )
        (block_2): ResnetBlock(
          (norm1): GroupNorm(32, 512, eps=1e-06, affine=True)
          (conv1): Conv2d(512, 512, kernel_size=(3, 3), stride=(1, 1), padding=(1, 1))
          (norm2): GroupNorm(32, 512, eps=1e-06, affine=True)
          (dropout): Dropout(p=0.0, inplace=False)
          (conv2): Conv2d(512, 512, kernel_size=(3, 3), stride=(1, 1), padding=(1, 1))
        )
      )
      (up): ModuleList(
        (0): Module(
          (block): ModuleList(
            (0): ResnetBlock(
              (norm1): GroupNorm(32, 256, eps=1e-06, affine=True)
              (conv1): Conv2d(256, 128, kernel_size=(3, 3), stride=(1, 1), padding=(1, 1))
              (norm2): GroupNorm(32, 128, eps=1e-06, affine=True)
              (dropout): Dropout(p=0.0, inplace=False)
              (conv2): Conv2d(128, 128, kernel_size=(3, 3), stride=(1, 1), padding=(1, 1))
              (nin_shortcut): Conv2d(256, 128, kernel_size=(1, 1), stride=(1, 1))
            )
            (1-2): 2 x ResnetBlock(
              (norm1): GroupNorm(32, 128, eps=1e-06, affine=True)
              (conv1): Conv2d(128, 128, kernel_size=(3, 3), stride=(1, 1), padding=(1, 1))
              (norm2): GroupNorm(32, 128, eps=1e-06, affine=True)
              (dropout): Dropout(p=0.0, inplace=False)
              (conv2): Conv2d(128, 128, kernel_size=(3, 3), stride=(1, 1), padding=(1, 1))
            )
          )
          (attn): ModuleList()
        )
        (1): Module(
          (block): ModuleList(
            (0): ResnetBlock(
              (norm1): GroupNorm(32, 512, eps=1e-06, affine=True)
              (conv1): Conv2d(512, 256, kernel_size=(3, 3), stride=(1, 1), padding=(1, 1))
              (norm2): GroupNorm(32, 256, eps=1e-06, affine=True)
              (dropout): Dropout(p=0.0, inplace=False)
              (conv2): Conv2d(256, 256, kernel_size=(3, 3), stride=(1, 1), padding=(1, 1))
              (nin_shortcut): Conv2d(512, 256, kernel_size=(1, 1), stride=(1, 1))
            )
            (1-2): 2 x ResnetBlock(
              (norm1): GroupNorm(32, 256, eps=1e-06, affine=True)
              (conv1): Conv2d(256, 256, kernel_size=(3, 3), stride=(1, 1), padding=(1, 1))
              (norm2): GroupNorm(32, 256, eps=1e-06, affine=True)
              (dropout): Dropout(p=0.0, inplace=False)
              (conv2): Conv2d(256, 256, kernel_size=(3, 3), stride=(1, 1), padding=(1, 1))
            )
          )
          (attn): ModuleList()
          (upsample): Upsample(
            (conv): Conv2d(256, 256, kernel_size=(3, 3), stride=(1, 1), padding=(1, 1))
          )
        )
        (2-3): 2 x Module(
          (block): ModuleList(
            (0-2): 3 x ResnetBlock(
              (norm1): GroupNorm(32, 512, eps=1e-06, affine=True)
              (conv1): Conv2d(512, 512, kernel_size=(3, 3), stride=(1, 1), padding=(1, 1))
              (norm2): GroupNorm(32, 512, eps=1e-06, affine=True)
              (dropout): Dropout(p=0.0, inplace=False)
              (conv2): Conv2d(512, 512, kernel_size=(3, 3), stride=(1, 1), padding=(1, 1))
            )
          )
          (attn): ModuleList()
          (upsample): Upsample(
            (conv): Conv2d(512, 512, kernel_size=(3, 3), stride=(1, 1), padding=(1, 1))
          )
        )
      )
      (norm_out): GroupNorm(32, 128, eps=1e-06, affine=True)
      (conv_out): Conv2d(128, 1, kernel_size=(3, 3), stride=(1, 1), padding=(1, 1))
    )
    (quant_conv): Conv2d(2, 2, kernel_size=(1, 1), stride=(1, 1))
    (post_quant_conv): Conv2d(1, 1, kernel_size=(1, 1), stride=(1, 1))
  )
),)
=> Preparing opt_ae 
Reached end on node 3 with result (AcceleratedOptimizer (
Parameter Group 0
    amsgrad: False
    betas: (0.5, 0.9)
    capturable: False
    differentiable: False
    eps: 1e-08
    foreach: None
    fused: None
    lr: 2.7e-05
    maximize: False
    weight_decay: 0
),)
Reached end on node 4 with result (AcceleratedOptimizer (
…
),)
=> Preparing criterion 
=> Preparing criterion 
=> Preparing criterion 
Reached end on node 1 with result (AcceleratedOptimizer (
Parameter Group 0
    amsgrad: False
    betas: (0.5, 0.9)
    capturable: False
    differentiable: False
    eps: 1e-08
    foreach: None
    fused: None
    lr: 2.7e-05
    maximize: False
    weight_decay: 0
),)
=> Preparing criterion 
Reached end on node 4 with result (DistributedDataParallel(
  (module): LPIPSWithDiscriminator(
    (perceptual_loss): LPIPS(
      (scaling_layer): ScalingLayer()
      (net): vgg16(
        (slice1): Sequential(
          (0): Conv2d(3, 64, kernel_size=(3, 3), stride=(1, 1), padding=(1, 1))
          (1): ReLU(inplace=True)
          (2): Conv2d(64, 64, kernel_size=(3, 3), stride=(1, 1), padding=(1, 1))
          (3): ReLU(inplace=True)
        )
        (slice2): Sequential(
          (4): MaxPool2d(kernel_size=2, stride=2, padding=0, dilation=1, ceil_mode=False)
          (5): Conv2d(64, 128, kernel_size=(3, 3), stride=(1, 1), padding=(1, 1))
          (6): ReLU(inplace=True)
          (7): Conv2d(128, 128, kernel_size=(3, 3), stride=(1, 1), padding=(1, 1))
          (8): ReLU(inplace=True)
        )
        (slice3): Sequential(
          (9): MaxPool2d(kernel_size=2, stride=2, padding=0, dilation=1, ceil_mode=False)
          (10): Conv2d(128, 256, kernel_size=(3, 3), stride=(1, 1), padding=(1, 1))
          (11): ReLU(inplace=True)
          (12): Conv2d(256, 256, kernel_size=(3, 3), stride=(1, 1), padding=(1, 1))
          (13): ReLU(inplace=True)
          (14): Conv2d(256, 256, kernel_size=(3, 3), stride=(1, 1), padding=(1, 1))
          (15): ReLU(inplace=True)
        )
        (slice4): Sequential(
          (16): MaxPool2d(kernel_size=2, stride=2, padding=0, dilation=1, ceil_mode=False)
          (17): Conv2d(256, 512, kernel_size=(3, 3), stride=(1, 1), padding=(1, 1))
          (18): ReLU(inplace=True)
          (19): Conv2d(512, 512, kernel_size=(3, 3), stride=(1, 1), padding=(1, 1))
          (20): ReLU(inplace=True)
          (21): Conv2d(512, 512, kernel_size=(3, 3), stride=(1, 1), padding=(1, 1))
          (22): ReLU(inplace=True)
        )
        (slice5): Sequential(
          (23): MaxPool2d(kernel_size=2, stride=2, padding=0, dilation=1, ceil_mode=False)
          (24): Conv2d(512, 512, kernel_size=(3, 3), stride=(1, 1), padding=(1, 1))
          (25): ReLU(inplace=True)
          (26): Conv2d(512, 512, kernel_size=(3, 3), stride=(1, 1), padding=(1, 1))
          (27): ReLU(inplace=True)
          (28): Conv2d(512, 512, kernel_size=(3, 3), stride=(1, 1), padding=(1, 1))
          (29): ReLU(inplace=True)
        )
      )
      (lin0): NetLinLayer(
        (model): Sequential(
          (0): Dropout(p=0.5, inplace=False)
          (1): Conv2d(64, 1, kernel_size=(1, 1), stride=(1, 1), bias=False)
        )
      )
      (lin1): NetLinLayer(
        (model): Sequential(
          (0): Dropout(p=0.5, inplace=False)
          (1): Conv2d(128, 1, kernel_size=(1, 1), stride=(1, 1), bias=False)
        )
      )
      (lin2): NetLinLayer(
        (model): Sequential(
          (0): Dropout(p=0.5, inplace=False)
          (1): Conv2d(256, 1, kernel_size=(1, 1), stride=(1, 1), bias=False)
        )
      )
      (lin3): NetLinLayer(
        (model): Sequential(
          (0): Dropout(p=0.5, inplace=False)
          (1): Conv2d(512, 1, kernel_size=(1, 1), stride=(1, 1), bias=False)
        )
      )
      (lin4): NetLinLayer(
        (model): Sequential(
          (0): Dropout(p=0.5, inplace=False)
          (1): Conv2d(512, 1, kernel_size=(1, 1), stride=(1, 1), bias=False)
        )
      )
    )
    (discriminator): NLayerDiscriminator(
      (main): Sequential(
        (0): Conv2d(1, 64, kernel_size=(4, 4), stride=(2, 2), padding=(1, 1))
        (1): LeakyReLU(negative_slope=0.2, inplace=True)
        (2): Conv2d(64, 128, kernel_size=(4, 4), stride=(2, 2), padding=(1, 1), bias=False)
        (3): BatchNorm2d(128, eps=1e-05, momentum=0.1, affine=True, track_running_stats=True)
        (4): LeakyReLU(negative_slope=0.2, inplace=True)
        (5): Conv2d(128, 256, kernel_size=(4, 4), stride=(2, 2), padding=(1, 1), bias=False)
        (6): BatchNorm2d(256, eps=1e-05, momentum=0.1, affine=True, track_running_stats=True)
        (7): LeakyReLU(negative_slope=0.2, inplace=True)
        (8): Conv2d(256, 512, kernel_size=(4, 4), stride=(1, 1), padding=(1, 1), bias=False)
        (9): BatchNorm2d(512, eps=1e-05, momentum=0.1, affine=True, track_running_stats=True)
        (10): LeakyReLU(negative_slope=0.2, inplace=True)
        (11): Conv2d(512, 1, kernel_size=(4, 4), stride=(1, 1), padding=(1, 1))
      )
    )
  )
),)Reached end on node 3 with result (DistributedDataParallel(
  (module): LPIPSWithDiscriminator(
    (perceptual_loss): LPIPS(
      (scaling_layer): ScalingLayer()
      (net): vgg16(
        (slice1): Sequential(
          (0): Conv2d(3, 64, kernel_size=(3, 3), stride=(1, 1), padding=(1, 1))
          (1): ReLU(inplace=True)
          (2): Conv2d(64, 64, kernel_size=(3, 3), stride=(1, 1), padding=(1, 1))
          (3): ReLU(inplace=True)
        )
        (slice2): Sequential(
          (4): MaxPool2d(kernel_size=2, stride=2, padding=0, dilation=1, ceil_mode=False)
          (5): Conv2d(64, 128, kernel_size=(3, 3), stride=(1, 1), padding=(1, 1))
          (6): ReLU(inplace=True)
          (7): Conv2d(128, 128, kernel_size=(3, 3), stride=(1, 1), padding=(1, 1))
          (8): ReLU(inplace=True)
        )
        (slice3): Sequential(
          (9): MaxPool2d(kernel_size=2, stride=2, padding=0, dilation=1, ceil_mode=False)
          (10): Conv2d(128, 256, kernel_size=(3, 3), stride=(1, 1), padding=(1, 1))
          (11): ReLU(inplace=True)
          (12): Conv2d(256, 256, kernel_size=(3, 3), stride=(1, 1), padding=(1, 1))
          (13): ReLU(inplace=True)
          (14): Conv2d(256, 256, kernel_size=(3, 3), stride=(1, 1), padding=(1, 1))
          (15): ReLU(inplace=True)
        )
        (slice4): Sequential(
          (16): MaxPool2d(kernel_size=2, stride=2, padding=0, dilation=1, ceil_mode=False)
          (17): Conv2d(256, 512, kernel_size=(3, 3), stride=(1, 1), padding=(1, 1))
          (18): ReLU(inplace=True)
          (19): Conv2d(512, 512, kernel_size=(3, 3), stride=(1, 1), padding=(1, 1))
          (20): ReLU(inplace=True)
          (21): Conv2d(512, 512, kernel_size=(3, 3), stride=(1, 1), padding=(1, 1))
          (22): ReLU(inplace=True)
        )
        (slice5): Sequential(
          (23): MaxPool2d(kernel_size=2, stride=2, padding=0, dilation=1, ceil_mode=False)
          (24): Conv2d(512, 512, kernel_size=(3, 3), stride=(1, 1), padding=(1, 1))
          (25): ReLU(inplace=True)
          (26): Conv2d(512, 512, kernel_size=(3, 3), stride=(1, 1), padding=(1, 1))
          (27): ReLU(inplace=True)
          (28): Conv2d(512, 512, kernel_size=(3, 3), stride=(1, 1), padding=(1, 1))
          (29): ReLU(inplace=True)
        )
      )
      (lin0): NetLinLayer(
        (model): Sequential(
          (0): Dropout(p=0.5, inplace=False)
          (1): Conv2d(64, 1, kernel_size=(1, 1), stride=(1, 1), bias=False)
        )
      )
      (lin1): NetLinLayer(
        (model): Sequential(
          (0): Dropout(p=0.5, inplace=False)
          (1): Conv2d(128, 1, kernel_size=(1, 1), stride=(1, 1), bias=False)
        )
      )
      (lin2): NetLinLayer(
        (model): Sequential(
          (0): Dropout(p=0.5, inplace=False)
          (1): Conv2d(256, 1, kernel_size=(1, 1), stride=(1, 1), bias=False)
        )
      )
      (lin3): NetLinLayer(
        (model): Sequential(
          (0): Dropout(p=0.5, inplace=False)
          (1): Conv2d(512, 1, kernel_size=(1, 1), stride=(1, 1), bias=False)
        )
      )
      (lin4): NetLinLayer(
        (model): Sequential(
          (0): Dropout(p=0.5, inplace=False)
          (1): Conv2d(512, 1, kernel_size=(1, 1), stride=(1, 1), bias=False)
        )
      )
    )
    (discriminator): NLayerDiscriminator(
      (main): Sequential(
        (0): Conv2d(1, 64, kernel_size=(4, 4), stride=(2, 2), padding=(1, 1))
        (1): LeakyReLU(negative_slope=0.2, inplace=True)
        (2): Conv2d(64, 128, kernel_size=(4, 4), stride=(2, 2), padding=(1, 1), bias=False)
        (3): BatchNorm2d(128, eps=1e-05, momentum=0.1, affine=True, track_running_stats=True)
        (4): LeakyReLU(negative_slope=0.2, inplace=True)
        (5): Conv2d(128, 256, kernel_size=(4, 4), stride=(2, 2), padding=(1, 1), bias=False)
        (6): BatchNorm2d(256, eps=1e-05, momentum=0.1, affine=True, track_running_stats=True)
        (7): LeakyReLU(negative_slope=0.2, inplace=True)
        (8): Conv2d(256, 512, kernel_size=(4, 4), stride=(1, 1), padding=(1, 1), bias=False)
        (9): BatchNorm2d(512, eps=1e-05, momentum=0.1, affine=True, track_running_stats=True)
        (10): LeakyReLU(negative_slope=0.2, inplace=True)
        (11): Conv2d(512, 1, kernel_size=(4, 4), stride=(1, 1), padding=(1, 1))
      )
    )
  )
),)

Reached end on node 2 with result (DistributedDataParallel(
  (module): LPIPSWithDiscriminator(
    (perceptual_loss): LPIPS(
      (scaling_layer): ScalingLayer()
      (net): vgg16(
        (slice1): Sequential(
          (0): Conv2d(3, 64, kernel_size=(3, 3), stride=(1, 1), padding=(1, 1))
          (1): ReLU(inplace=True)
          (2): Conv2d(64, 64, kernel_size=(3, 3), stride=(1, 1), padding=(1, 1))
          (3): ReLU(inplace=True)
        )
        (slice2): Sequential(
          (4): MaxPool2d(kernel_size=2, stride=2, padding=0, dilation=1, ceil_mode=False)
          (5): Conv2d(64, 128, kernel_size=(3, 3), stride=(1, 1), padding=(1, 1))
          (6): ReLU(inplace=True)
          (7): Conv2d(128, 128, kernel_size=(3, 3), stride=(1, 1), padding=(1, 1))
          (8): ReLU(inplace=True)
        )
        (slice3): Sequential(
          (9): MaxPool2d(kernel_size=2, stride=2, padding=0, dilation=1, ceil_mode=False)
          (10): Conv2d(128, 256, kernel_size=(3, 3), stride=(1, 1), padding=(1, 1))
          (11): ReLU(inplace=True)
          (12): Conv2d(256, 256, kernel_size=(3, 3), stride=(1, 1), padding=(1, 1))
          (13): ReLU(inplace=True)
          (14): Conv2d(256, 256, kernel_size=(3, 3), stride=(1, 1), padding=(1, 1))
          (15): ReLU(inplace=True)
        )
        (slice4): Sequential(
          (16): MaxPool2d(kernel_size=2, stride=2, padding=0, dilation=1, ceil_mode=False)
          (17): Conv2d(256, 512, kernel_size=(3, 3), stride=(1, 1), padding=(1, 1))
          (18): ReLU(inplace=True)
          (19): Conv2d(512, 512, kernel_size=(3, 3), stride=(1, 1), padding=(1, 1))
          (20): ReLU(inplace=True)
          (21): Conv2d(512, 512, kernel_size=(3, 3), stride=(1, 1), padding=(1, 1))
          (22): ReLU(inplace=True)
        )
        (slice5): Sequential(
          (23): MaxPool2d(kernel_size=2, stride=2, padding=0, dilation=1, ceil_mode=False)
          (24): Conv2d(512, 512, kernel_size=(3, 3), stride=(1, 1), padding=(1, 1))
          (25): ReLU(inplace=True)
          (26): Conv2d(512, 512, kernel_size=(3, 3), stride=(1, 1), padding=(1, 1))
          (27): ReLU(inplace=True)
          (28): Conv2d(512, 512, kernel_size=(3, 3), stride=(1, 1), padding=(1, 1))
          (29): ReLU(inplace=True)
        )
      )
      (lin0): NetLinLayer(
        (model): Sequential(
          (0): Dropout(p=0.5, inplace=False)
          (1): Conv2d(64, 1, kernel_size=(1, 1), stride=(1, 1), bias=False)
        )
      )
      (lin1): NetLinLayer(
        (model): Sequential(
          (0): Dropout(p=0.5, inplace=False)
          (1): Conv2d(128, 1, kernel_size=(1, 1), stride=(1, 1), bias=False)
        )
      )
      (lin2): NetLinLayer(
        (model): Sequential(
          (0): Dropout(p=0.5, inplace=False)
          (1): Conv2d(256, 1, kernel_size=(1, 1), stride=(1, 1), bias=False)
        )
      )
      (lin3): NetLinLayer(
        (model): Sequential(
          (0): Dropout(p=0.5, inplace=False)
          (1): Conv2d(512, 1, kernel_size=(1, 1), stride=(1, 1), bias=False)
        )
      )
      (lin4): NetLinLayer(
        (model): Sequential(
          (0): Dropout(p=0.5, inplace=False)
          (1): Conv2d(512, 1, kernel_size=(1, 1), stride=(1, 1), bias=False)
        )
      )
    )
    (discriminator): NLayerDiscriminator(
      (main): Sequential(
        (0): Conv2d(1, 64, kernel_size=(4, 4), stride=(2, 2), padding=(1, 1))
        (1): LeakyReLU(negative_slope=0.2, inplace=True)
        (2): Conv2d(64, 128, kernel_size=(4, 4), stride=(2, 2), padding=(1, 1), bias=False)
        (3): BatchNorm2d(128, eps=1e-05, momentum=0.1, affine=True, track_running_stats=True)
        (4): LeakyReLU(negative_slope=0.2, inplace=True)
        (5): Conv2d(128, 256, kernel_size=(4, 4), stride=(2, 2), padding=(1, 1), bias=False)
        (6): BatchNorm2d(256, eps=1e-05, momentum=0.1, affine=True, track_running_stats=True)
        (7): LeakyReLU(negative_slope=0.2, inplace=True)
        (8): Conv2d(256, 512, kernel_size=(4, 4), stride=(1, 1), padding=(1, 1), bias=False)
        (9): BatchNorm2d(512, eps=1e-05, momentum=0.1, affine=True, track_running_stats=True)
        (10): LeakyReLU(negative_slope=0.2, inplace=True)
        (11): Conv2d(512, 1, kernel_size=(4, 4), stride=(1, 1), padding=(1, 1))
      )
    )
  )
),)Reached end on node 1 with result (DistributedDataParallel(
  (module): LPIPSWithDiscriminator(
    (perceptual_loss): LPIPS(
      (scaling_layer): ScalingLayer()
      (net): vgg16(
        (slice1): Sequential(
          (0): Conv2d(3, 64, kernel_size=(3, 3), stride=(1, 1), padding=(1, 1))
          (1): ReLU(inplace=True)
          (2): Conv2d(64, 64, kernel_size=(3, 3), stride=(1, 1), padding=(1, 1))
          (3): ReLU(inplace=True)
        )
        (slice2): Sequential(
          (4): MaxPool2d(kernel_size=2, stride=2, padding=0, dilation=1, ceil_mode=False)
          (5): Conv2d(64, 128, kernel_size=(3, 3), stride=(1, 1), padding=(1, 1))
          (6): ReLU(inplace=True)
          (7): Conv2d(128, 128, kernel_size=(3, 3), stride=(1, 1), padding=(1, 1))
          (8): ReLU(inplace=True)
        )
        (slice3): Sequential(
          (9): MaxPool2d(kernel_size=2, stride=2, padding=0, dilation=1, ceil_mode=False)
          (10): Conv2d(128, 256, kernel_size=(3, 3), stride=(1, 1), padding=(1, 1))
          (11): ReLU(inplace=True)
          (12): Conv2d(256, 256, kernel_size=(3, 3), stride=(1, 1), padding=(1, 1))
          (13): ReLU(inplace=True)
          (14): Conv2d(256, 256, kernel_size=(3, 3), stride=(1, 1), padding=(1, 1))
          (15): ReLU(inplace=True)
        )
        (slice4): Sequential(
          (16): MaxPool2d(kernel_size=2, stride=2, padding=0, dilation=1, ceil_mode=False)
          (17): Conv2d(256, 512, kernel_size=(3, 3), stride=(1, 1), padding=(1, 1))
          (18): ReLU(inplace=True)
          (19): Conv2d(512, 512, kernel_size=(3, 3), stride=(1, 1), padding=(1, 1))
          (20): ReLU(inplace=True)
          (21): Conv2d(512, 512, kernel_size=(3, 3), stride=(1, 1), padding=(1, 1))
          (22): ReLU(inplace=True)
        )
        (slice5): Sequential(
          (23): MaxPool2d(kernel_size=2, stride=2, padding=0, dilation=1, ceil_mode=False)
          (24): Conv2d(512, 512, kernel_size=(3, 3), stride=(1, 1), padding=(1, 1))
          (25): ReLU(inplace=True)
          (26): Conv2d(512, 512, kernel_size=(3, 3), stride=(1, 1), padding=(1, 1))
          (27): ReLU(inplace=True)
          (28): Conv2d(512, 512, kernel_size=(3, 3), stride=(1, 1), padding=(1, 1))
          (29): ReLU(inplace=True)
        )
      )
      (lin0): NetLinLayer(
        (model): Sequential(
          (0): Dropout(p=0.5, inplace=False)
          (1): Conv2d(64, 1, kernel_size=(1, 1), stride=(1, 1), bias=False)
        )
      )
      (lin1): NetLinLayer(
        (model): Sequential(
          (0): Dropout(p=0.5, inplace=False)
          (1): Conv2d(128, 1, kernel_size=(1, 1), stride=(1, 1), bias=False)
        )
      )
      (lin2): NetLinLayer(
        (model): Sequential(
          (0): Dropout(p=0.5, inplace=False)
          (1): Conv2d(256, 1, kernel_size=(1, 1), stride=(1, 1), bias=False)
        )
      )
      (lin3): NetLinLayer(
        (model): Sequential(
          (0): Dropout(p=0.5, inplace=False)
          (1): Conv2d(512, 1, kernel_size=(1, 1), stride=(1, 1), bias=False)
        )
      )
      (lin4): NetLinLayer(
        (model): Sequential(
          (0): Dropout(p=0.5, inplace=False)
          (1): Conv2d(512, 1, kernel_size=(1, 1), stride=(1, 1), bias=False)
        )
      )
    )
    (discriminator): NLayerDiscriminator(
      (main): Sequential(
        (0): Conv2d(1, 64, kernel_size=(4, 4), stride=(2, 2), padding=(1, 1))
        (1): LeakyReLU(negative_slope=0.2, inplace=True)
        (2): Conv2d(64, 128, kernel_size=(4, 4), stride=(2, 2), padding=(1, 1), bias=False)
        (3): BatchNorm2d(128, eps=1e-05, momentum=0.1, affine=True, track_running_stats=True)
        (4): LeakyReLU(negative_slope=0.2, inplace=True)
        (5): Conv2d(128, 256, kernel_size=(4, 4), stride=(2, 2), padding=(1, 1), bias=False)
        (6): BatchNorm2d(256, eps=1e-05, momentum=0.1, affine=True, track_running_stats=True)
        (7): LeakyReLU(negative_slope=0.2, inplace=True)
        (8): Conv2d(256, 512, kernel_size=(4, 4), stride=(1, 1), padding=(1, 1), bias=False)
        (9): BatchNorm2d(512, eps=1e-05, momentum=0.1, affine=True, track_running_stats=True)
        (10): LeakyReLU(negative_slope=0.2, inplace=True)
        (11): Conv2d(512, 1, kernel_size=(4, 4), stride=(1, 1), padding=(1, 1))
      )
    )
  )
),)Reached end on node 0 with result (DistributedDataParallel(
  (module): LPIPSWithDiscriminator(
    (perceptual_loss): LPIPS(
      (scaling_layer): ScalingLayer()
      (net): vgg16(
        (slice1): Sequential(
          (0): Conv2d(3, 64, kernel_size=(3, 3), stride=(1, 1), padding=(1, 1))
          (1): ReLU(inplace=True)
          (2): Conv2d(64, 64, kernel_size=(3, 3), stride=(1, 1), padding=(1, 1))
          (3): ReLU(inplace=True)
        )
        (slice2): Sequential(
          (4): MaxPool2d(kernel_size=2, stride=2, padding=0, dilation=1, ceil_mode=False)
          (5): Conv2d(64, 128, kernel_size=(3, 3), stride=(1, 1), padding=(1, 1))
          (6): ReLU(inplace=True)
          (7): Conv2d(128, 128, kernel_size=(3, 3), stride=(1, 1), padding=(1, 1))
          (8): ReLU(inplace=True)
        )
        (slice3): Sequential(
          (9): MaxPool2d(kernel_size=2, stride=2, padding=0, dilation=1, ceil_mode=False)
          (10): Conv2d(128, 256, kernel_size=(3, 3), stride=(1, 1), padding=(1, 1))
          (11): ReLU(inplace=True)
          (12): Conv2d(256, 256, kernel_size=(3, 3), stride=(1, 1), padding=(1, 1))
          (13): ReLU(inplace=True)
          (14): Conv2d(256, 256, kernel_size=(3, 3), stride=(1, 1), padding=(1, 1))
          (15): ReLU(inplace=True)
        )
        (slice4): Sequential(
          (16): MaxPool2d(kernel_size=2, stride=2, padding=0, dilation=1, ceil_mode=False)
          (17): Conv2d(256, 512, kernel_size=(3, 3), stride=(1, 1), padding=(1, 1))
          (18): ReLU(inplace=True)
          (19): Conv2d(512, 512, kernel_size=(3, 3), stride=(1, 1), padding=(1, 1))
          (20): ReLU(inplace=True)
          (21): Conv2d(512, 512, kernel_size=(3, 3), stride=(1, 1), padding=(1, 1))
          (22): ReLU(inplace=True)
        )
        (slice5): Sequential(
          (23): MaxPool2d(kernel_size=2, stride=2, padding=0, dilation=1, ceil_mode=False)
          (24): Conv2d(512, 512, kernel_size=(3, 3), stride=(1, 1), padding=(1, 1))
          (25): ReLU(inplace=True)
          (26): Conv2d(512, 512, kernel_size=(3, 3), stride=(1, 1), padding=(1, 1))
          (27): ReLU(inplace=True)
          (28): Conv2d(512, 512, kernel_size=(3, 3), stride=(1, 1), padding=(1, 1))
          (29): ReLU(inplace=True)
        )
      )
      (lin0): NetLinLayer(
        (model): Sequential(
          (0): Dropout(p=0.5, inplace=False)
          (1): Conv2d(64, 1, kernel_size=(1, 1), stride=(1, 1), bias=False)
        )
      )
      (lin1): NetLinLayer(
        (model): Sequential(
          (0): Dropout(p=0.5, inplace=False)
          (1): Conv2d(128, 1, kernel_size=(1, 1), stride=(1, 1), bias=False)
        )
      )
      (lin2): NetLinLayer(
        (model): Sequential(
          (0): Dropout(p=0.5, inplace=False)
          (1): Conv2d(256, 1, kernel_size=(1, 1), stride=(1, 1), bias=False)
        )
      )
      (lin3): NetLinLayer(
        (model): Sequential(
          (0): Dropout(p=0.5, inplace=False)
          (1): Conv2d(512, 1, kernel_size=(1, 1), stride=(1, 1), bias=False)
        )
      )
      (lin4): NetLinLayer(
        (model): Sequential(
          (0): Dropout(p=0.5, inplace=False)
          (1): Conv2d(512, 1, kernel_size=(1, 1), stride=(1, 1), bias=False)
        )
      )
    )
    (discriminator): NLayerDiscriminator(
      (main): Sequential(
        (0): Conv2d(1, 64, kernel_size=(4, 4), stride=(2, 2), padding=(1, 1))
        (1): LeakyReLU(negative_slope=0.2, inplace=True)
        (2): Conv2d(64, 128, kernel_size=(4, 4), stride=(2, 2), padding=(1, 1), bias=False)
        (3): BatchNorm2d(128, eps=1e-05, momentum=0.1, affine=True, track_running_stats=True)
        (4): LeakyReLU(negative_slope=0.2, inplace=True)
        (5): Conv2d(128, 256, kernel_size=(4, 4), stride=(2, 2), padding=(1, 1), bias=False)
        (6): BatchNorm2d(256, eps=1e-05, momentum=0.1, affine=True, track_running_stats=True)
        (7): LeakyReLU(negative_slope=0.2, inplace=True)
        (8): Conv2d(256, 512, kernel_size=(4, 4), stride=(1, 1), padding=(1, 1), bias=False)
        (9): BatchNorm2d(512, eps=1e-05, momentum=0.1, affine=True, track_running_stats=True)
        (10): LeakyReLU(negative_slope=0.2, inplace=True)
        (11): Conv2d(512, 1, kernel_size=(4, 4), stride=(1, 1), padding=(1, 1))
      )
    )
  )
),)


Reached end on node 5 with result (DistributedDataParallel(
  (module): LPIPSWithDiscriminator(
    (perceptual_loss): LPIPS(
      (scaling_layer): ScalingLayer()
      (net): vgg16(
        (slice1): Sequential(
          (0): Conv2d(3, 64, kernel_size=(3, 3), stride=(1, 1), padding=(1, 1))
          (1): ReLU(inplace=True)
          (2): Conv2d(64, 64, kernel_size=(3, 3), stride=(1, 1), padding=(1, 1))
          (3): ReLU(inplace=True)
        )
        (slice2): Sequential(
          (4): MaxPool2d(kernel_size=2, stride=2, padding=0, dilation=1, ceil_mode=False)
          (5): Conv2d(64, 128, kernel_size=(3, 3), stride=(1, 1), padding=(1, 1))
          (6): ReLU(inplace=True)
          (7): Conv2d(128, 128, kernel_size=(3, 3), stride=(1, 1), padding=(1, 1))
          (8): ReLU(inplace=True)
        )
        (slice3): Sequential(
          (9): MaxPool2d(kernel_size=2, stride=2, padding=0, dilation=1, ceil_mode=False)
          (10): Conv2d(128, 256, kernel_size=(3, 3), stride=(1, 1), padding=(1, 1))
          (11): ReLU(inplace=True)
          (12): Conv2d(256, 256, kernel_size=(3, 3), stride=(1, 1), padding=(1, 1))
          (13): ReLU(inplace=True)
          (14): Conv2d(256, 256, kernel_size=(3, 3), stride=(1, 1), padding=(1, 1))
          (15): ReLU(inplace=True)
        )
        (slice4): Sequential(
          (16): MaxPool2d(kernel_size=2, stride=2, padding=0, dilation=1, ceil_mode=False)
          (17): Conv2d(256, 512, kernel_size=(3, 3), stride=(1, 1), padding=(1, 1))
          (18): ReLU(inplace=True)
          (19): Conv2d(512, 512, kernel_size=(3, 3), stride=(1, 1), padding=(1, 1))
          (20): ReLU(inplace=True)
          (21): Conv2d(512, 512, kernel_size=(3, 3), stride=(1, 1), padding=(1, 1))
          (22): ReLU(inplace=True)
        )
        (slice5): Sequential(
          (23): MaxPool2d(kernel_size=2, stride=2, padding=0, dilation=1, ceil_mode=False)
          (24): Conv2d(512, 512, kernel_size=(3, 3), stride=(1, 1), padding=(1, 1))
          (25): ReLU(inplace=True)
          (26): Conv2d(512, 512, kernel_size=(3, 3), stride=(1, 1), padding=(1, 1))
          (27): ReLU(inplace=True)
          (28): Conv2d(512, 512, kernel_size=(3, 3), stride=(1, 1), padding=(1, 1))
          (29): ReLU(inplace=True)
        )
      )
      (lin0): NetLinLayer(
        (model): Sequential(
          (0): Dropout(p=0.5, inplace=False)
          (1): Conv2d(64, 1, kernel_size=(1, 1), stride=(1, 1), bias=False)
        )
      )
      (lin1): NetLinLayer(
        (model): Sequential(
          (0): Dropout(p=0.5, inplace=False)
          (1): Conv2d(128, 1, kernel_size=(1, 1), stride=(1, 1), bias=False)
        )
      )
      (lin2): NetLinLayer(
        (model): Sequential(
          (0): Dropout(p=0.5, inplace=False)
          (1): Conv2d(256, 1, kernel_size=(1, 1), stride=(1, 1), bias=False)
        )
      )
      (lin3): NetLinLayer(
        (model): Sequential(
          (0): Dropout(p=0.5, inplace=False)
          (1): Conv2d(512, 1, kernel_size=(1, 1), stride=(1, 1), bias=False)
        )
      )
      (lin4): NetLinLayer(
        (model): Sequential(
          (0): Dropout(p=0.5, inplace=False)
          (1): Conv2d(512, 1, kernel_size=(1, 1), stride=(1, 1), bias=False)
        )
      )
    )
    (discriminator): NLayerDiscriminator(
      (main): Sequential(
        (0): Conv2d(1, 64, kernel_size=(4, 4), stride=(2, 2), padding=(1, 1))
        (1): LeakyReLU(negative_slope=0.2, inplace=True)
        (2): Conv2d(64, 128, kernel_size=(4, 4), stride=(2, 2), padding=(1, 1), bias=False)
        (3): BatchNorm2d(128, eps=1e-05, momentum=0.1, affine=True, track_running_stats=True)
        (4): LeakyReLU(negative_slope=0.2, inplace=True)
        (5): Conv2d(128, 256, kernel_size=(4, 4), stride=(2, 2), padding=(1, 1), bias=False)
        (6): BatchNorm2d(256, eps=1e-05, momentum=0.1, affine=True, track_running_stats=True)
        (7): LeakyReLU(negative_slope=0.2, inplace=True)
        (8): Conv2d(256, 512, kernel_size=(4, 4), stride=(1, 1), padding=(1, 1), bias=False)
        (9): BatchNorm2d(512, eps=1e-05, momentum=0.1, affine=True, track_running_stats=True)
        (10): LeakyReLU(negative_slope=0.2, inplace=True)
        (11): Conv2d(512, 1, kernel_size=(4, 4), stride=(1, 1), padding=(1, 1))
      )
    )
  )
),)
=> Loading from checkpoint 
=> Loading from checkpoint 
=> Loading from checkpoint 
=> Loading from checkpoint 
=> Loading from checkpoint 
=> Loading from checkpoint 
Loaded checkpoint at epoch 0 and step 21
Loaded checkpoint at epoch 0 and step 21
Loaded checkpoint at epoch 0 and step 21
Loaded checkpoint at epoch 0 and step 21
…
Reached end on node 2 with result (MeanMetric(), MeanMetric(), MeanMetric(), MeanMetric(), MeanMetric())
Reached end on node 3 with result (MeanMetric(), MeanMetric(), MeanMetric(), MeanMetric(), MeanMetric())
Reached end on node 4 with result (MeanMetric(), MeanMetric(), MeanMetric(), MeanMetric(), MeanMetric())
Reached end on node 5 with result (MeanMetric(), MeanMetric(), MeanMetric(), MeanMetric(), MeanMetric())
Reached end on node 5 with result (PSNR(
  (func): _PeakSignalNoiseRatio()
), MSE(), FID_Inception(
  (func): FrechetInceptionDistance(
    (inception): NoTrainInceptionV3(
      (Conv2d_1a_3x3): BasicConv2d(
        (conv): Conv2d(3, 32, kernel_size=(3, 3), stride=(2, 2), bias=False)
        (bn): BatchNorm2d(32, eps=0.001, momentum=0.1, affine=True, track_running_stats=True)
      )
      (Conv2d_2a_3x3): BasicConv2d(
        (conv): Conv2d(32, 32, kernel_size=(3, 3), stride=(1, 1), bias=False)
        (bn): BatchNorm2d(32, eps=0.001, momentum=0.1, affine=True, track_running_stats=True)
      )
      (Conv2d_2b_3x3): BasicConv2d(
        (conv): Conv2d(32, 64, kernel_size=(3, 3), stride=(1, 1), padding=(1, 1), bias=False)
        (bn): BatchNorm2d(64, eps=0.001, momentum=0.1, affine=True, track_running_stats=True)
      )
      (MaxPool_1): MaxPool2d(kernel_size=3, stride=2, padding=0, dilation=1, ceil_mode=False)
      (Conv2d_3b_1x1): BasicConv2d(
        (conv): Conv2d(64, 80, kernel_size=(1, 1), stride=(1, 1), bias=False)
        (bn): BatchNorm2d(80, eps=0.001, momentum=0.1, affine=True, track_running_stats=True)
      )
      (Conv2d_4a_3x3): BasicConv2d(
        (conv): Conv2d(80, 192, kernel_size=(3, 3), stride=(1, 1), bias=False)
        (bn): BatchNorm2d(192, eps=0.001, momentum=0.1, affine=True, track_running_stats=True)
      )
      (MaxPool_2): MaxPool2d(kernel_size=3, stride=2, padding=0, dilation=1, ceil_mode=False)
      (Mixed_5b): InceptionA(
        (branch1x1): BasicConv2d(
          (conv): Conv2d(192, 64, kernel_size=(1, 1), stride=(1, 1), bias=False)
          (bn): BatchNorm2d(64, eps=0.001, momentum=0.1, affine=True, track_running_stats=True)
        )
        (branch5x5_1): BasicConv2d(
          (conv): Conv2d(192, 48, kernel_size=(1, 1), stride=(1, 1), bias=False)
          (bn): BatchNorm2d(48, eps=0.001, momentum=0.1, affine=True, track_running_stats=True)
        )
        (branch5x5_2): BasicConv2d(
          (conv): Conv2d(48, 64, kernel_size=(5, 5), stride=(1, 1), padding=(2, 2), bias=False)
          (bn): BatchNorm2d(64, eps=0.001, momentum=0.1, affine=True, track_running_stats=True)
        )
        (branch3x3dbl_1): BasicConv2d(
          (conv): Conv2d(192, 64, kernel_size=(1, 1), stride=(1, 1), bias=False)
          (bn): BatchNorm2d(64, eps=0.001, momentum=0.1, affine=True, track_running_stats=True)
        )
        (branch3x3dbl_2): BasicConv2d(
          (conv): Conv2d(64, 96, kernel_size=(3, 3), stride=(1, 1), padding=(1, 1), bias=False)
          (bn): BatchNorm2d(96, eps=0.001, momentum=0.1, affine=True, track_running_stats=True)
        )
        (branch3x3dbl_3): BasicConv2d(
          (conv): Conv2d(96, 96, kernel_size=(3, 3), stride=(1, 1), padding=(1, 1), bias=False)
          (bn): BatchNorm2d(96, eps=0.001, momentum=0.1, affine=True, track_running_stats=True)
        )
        (branch_pool): BasicConv2d(
          (conv): Conv2d(192, 32, kernel_size=(1, 1), stride=(1, 1), bias=False)
          (bn): BatchNorm2d(32, eps=0.001, momentum=0.1, affine=True, track_running_stats=True)
        )
      )
      (Mixed_5c): InceptionA(
        (branch1x1): BasicConv2d(
          (conv): Conv2d(256, 64, kernel_size=(1, 1), stride=(1, 1), bias=False)
          (bn): BatchNorm2d(64, eps=0.001, momentum=0.1, affine=True, track_running_stats=True)
        )
        (branch5x5_1): BasicConv2d(
          (conv): Conv2d(256, 48, kernel_size=(1, 1), stride=(1, 1), bias=False)
          (bn): BatchNorm2d(48, eps=0.001, momentum=0.1, affine=True, track_running_stats=True)
        )
        (branch5x5_2): BasicConv2d(
          (conv): Conv2d(48, 64, kernel_size=(5, 5), stride=(1, 1), padding=(2, 2), bias=False)
          (bn): BatchNorm2d(64, eps=0.001, momentum=0.1, affine=True, track_running_stats=True)
        )
        (branch3x3dbl_1): BasicConv2d(
          (conv): Conv2d(256, 64, kernel_size=(1, 1), stride=(1, 1), bias=False)
          (bn): BatchNorm2d(64, eps=0.001, momentum=0.1, affine=True, track_running_stats=True)
        )
        (branch3x3dbl_2): BasicConv2d(
          (conv): Conv2d(64, 96, kernel_size=(3, 3), stride=(1, 1), padding=(1, 1), bias=False)
          (bn): BatchNorm2d(96, eps=0.001, momentum=0.1, affine=True, track_running_stats=True)
        )
        (branch3x3dbl_3): BasicConv2d(
          (conv): Conv2d(96, 96, kernel_size=(3, 3), stride=(1, 1), padding=(1, 1), bias=False)
          (bn): BatchNorm2d(96, eps=0.001, momentum=0.1, affine=True, track_running_stats=True)
        )
        (branch_pool): BasicConv2d(
          (conv): Conv2d(256, 64, kernel_size=(1, 1), stride=(1, 1), bias=False)
          (bn): BatchNorm2d(64, eps=0.001, momentum=0.1, affine=True, track_running_stats=True)
        )
      )
      (Mixed_5d): InceptionA(
        (branch1x1): BasicConv2d(
          (conv): Conv2d(288, 64, kernel_size=(1, 1), stride=(1, 1), bias=False)
          (bn): BatchNorm2d(64, eps=0.001, momentum=0.1, affine=True, track_running_stats=True)
        )
        (branch5x5_1): BasicConv2d(
          (conv): Conv2d(288, 48, kernel_size=(1, 1), stride=(1, 1), bias=False)
          (bn): BatchNorm2d(48, eps=0.001, momentum=0.1, affine=True, track_running_stats=True)
        )
        (branch5x5_2): BasicConv2d(
          (conv): Conv2d(48, 64, kernel_size=(5, 5), stride=(1, 1), padding=(2, 2), bias=False)
          (bn): BatchNorm2d(64, eps=0.001, momentum=0.1, affine=True, track_running_stats=True)
        )
        (branch3x3dbl_1): BasicConv2d(
          (conv): Conv2d(288, 64, kernel_size=(1, 1), stride=(1, 1), bias=False)
          (bn): BatchNorm2d(64, eps=0.001, momentum=0.1, affine=True, track_running_stats=True)
        )
        (branch3x3dbl_2): BasicConv2d(
          (conv): Conv2d(64, 96, kernel_size=(3, 3), stride=(1, 1), padding=(1, 1), bias=False)
          (bn): BatchNorm2d(96, eps=0.001, momentum=0.1, affine=True, track_running_stats=True)
        )
        (branch3x3dbl_3): BasicConv2d(
          (conv): Conv2d(96, 96, kernel_size=(3, 3), stride=(1, 1), padding=(1, 1), bias=False)
          (bn): BatchNorm2d(96, eps=0.001, momentum=0.1, affine=True, track_running_stats=True)
        )
        (branch_pool): BasicConv2d(
          (conv): Conv2d(288, 64, kernel_size=(1, 1), stride=(1, 1), bias=False)
          (bn): BatchNorm2d(64, eps=0.001, momentum=0.1, affine=True, track_running_stats=True)
        )
      )
      (Mixed_6a): InceptionB(
        (branch3x3): BasicConv2d(
          (conv): Conv2d(288, 384, kernel_size=(3, 3), stride=(2, 2), bias=False)
          (bn): BatchNorm2d(384, eps=0.001, momentum=0.1, affine=True, track_running_stats=True)
        )
        (branch3x3dbl_1): BasicConv2d(
          (conv): Conv2d(288, 64, kernel_size=(1, 1), stride=(1, 1), bias=False)
          (bn): BatchNorm2d(64, eps=0.001, momentum=0.1, affine=True, track_running_stats=True)
        )
        (branch3x3dbl_2): BasicConv2d(
          (conv): Conv2d(64, 96, kernel_size=(3, 3), stride=(1, 1), padding=(1, 1), bias=False)
          (bn): BatchNorm2d(96, eps=0.001, momentum=0.1, affine=True, track_running_stats=True)
        )
        (branch3x3dbl_3): BasicConv2d(
          (conv): Conv2d(96, 96, kernel_size=(3, 3), stride=(2, 2), bias=False)
          (bn): BatchNorm2d(96, eps=0.001, momentum=0.1, affine=True, track_running_stats=True)
        )
      )
      (Mixed_6b): InceptionC(
        (branch1x1): BasicConv2d(
          (conv): Conv2d(768, 192, kernel_size=(1, 1), stride=(1, 1), bias=False)
          (bn): BatchNorm2d(192, eps=0.001, momentum=0.1, affine=True, track_running_stats=True)
        )
        (branch7x7_1): BasicConv2d(
          (conv): Conv2d(768, 128, kernel_size=(1, 1), stride=(1, 1), bias=False)
          (bn): BatchNorm2d(128, eps=0.001, momentum=0.1, affine=True, track_running_stats=True)
        )
        (branch7x7_2): BasicConv2d(
          (conv): Conv2d(128, 128, kernel_size=(1, 7), stride=(1, 1), padding=(0, 3), bias=False)
          (bn): BatchNorm2d(128, eps=0.001, momentum=0.1, affine=True, track_running_stats=True)
        )
        (branch7x7_3): BasicConv2d(
          (conv): Conv2d(128, 192, kernel_size=(7, 1), stride=(1, 1), padding=(3, 0), bias=False)
          (bn): BatchNorm2d(192, eps=0.001, momentum=0.1, affine=True, track_running_stats=True)
        )
        (branch7x7dbl_1): BasicConv2d(
          (conv): Conv2d(768, 128, kernel_size=(1, 1), stride=(1, 1), bias=False)
          (bn): BatchNorm2d(128, eps=0.001, momentum=0.1, affine=True, track_running_stats=True)
        )
        (branch7x7dbl_2): BasicConv2d(
          (conv): Conv2d(128, 128, kernel_size=(7, 1), stride=(1, 1), padding=(3, 0), bias=False)
          (bn): BatchNorm2d(128, eps=0.001, momentum=0.1, affine=True, track_running_stats=True)
        )
        (branch7x7dbl_3): BasicConv2d(
          (conv): Conv2d(128, 128, kernel_size=(1, 7), stride=(1, 1), padding=(0, 3), bias=False)
          (bn): BatchNorm2d(128, eps=0.001, momentum=0.1, affine=True, track_running_stats=True)
        )
        (branch7x7dbl_4): BasicConv2d(
          (conv): Conv2d(128, 128, kernel_size=(7, 1), stride=(1, 1), padding=(3, 0), bias=False)
          (bn): BatchNorm2d(128, eps=0.001, momentum=0.1, affine=True, track_running_stats=True)
        )
        (branch7x7dbl_5): BasicConv2d(
          (conv): Conv2d(128, 192, kernel_size=(1, 7), stride=(1, 1), padding=(0, 3), bias=False)
          (bn): BatchNorm2d(192, eps=0.001, momentum=0.1, affine=True, track_running_stats=True)
        )
        (branch_pool): BasicConv2d(
          (conv): Conv2d(768, 192, kernel_size=(1, 1), stride=(1, 1), bias=False)
          (bn): BatchNorm2d(192, eps=0.001, momentum=0.1, affine=True, track_running_stats=True)
        )
      )
      (Mixed_6c): InceptionC(
        (branch1x1): BasicConv2d(
          (conv): Conv2d(768, 192, kernel_size=(1, 1), stride=(1, 1), bias=False)
          (bn): BatchNorm2d(192, eps=0.001, momentum=0.1, affine=True, track_running_stats=True)
        )
        (branch7x7_1): BasicConv2d(
          (conv): Conv2d(768, 160, kernel_size=(1, 1), stride=(1, 1), bias=False)
          (bn): BatchNorm2d(160, eps=0.001, momentum=0.1, affine=True, track_running_stats=True)
        )
        (branch7x7_2): BasicConv2d(
          (conv): Conv2d(160, 160, kernel_size=(1, 7), stride=(1, 1), padding=(0, 3), bias=False)
          (bn): BatchNorm2d(160, eps=0.001, momentum=0.1, affine=True, track_running_stats=True)
        )
        (branch7x7_3): BasicConv2d(
          (conv): Conv2d(160, 192, kernel_size=(7, 1), stride=(1, 1), padding=(3, 0), bias=False)
          (bn): BatchNorm2d(192, eps=0.001, momentum=0.1, affine=True, track_running_stats=True)
        )
        (branch7x7dbl_1): BasicConv2d(
          (conv): Conv2d(768, 160, kernel_size=(1, 1), stride=(1, 1), bias=False)
          (bn): BatchNorm2d(160, eps=0.001, momentum=0.1, affine=True, track_running_stats=True)
        )
        (branch7x7dbl_2): BasicConv2d(
          (conv): Conv2d(160, 160, kernel_size=(7, 1), stride=(1, 1), padding=(3, 0), bias=False)
          (bn): BatchNorm2d(160, eps=0.001, momentum=0.1, affine=True, track_running_stats=True)
        )
        (branch7x7dbl_3): BasicConv2d(
          (conv): Conv2d(160, 160, kernel_size=(1, 7), stride=(1, 1), padding=(0, 3), bias=False)
          (bn): BatchNorm2d(160, eps=0.001, momentum=0.1, affine=True, track_running_stats=True)
        )
        (branch7x7dbl_4): BasicConv2d(
          (conv): Conv2d(160, 160, kernel_size=(7, 1), stride=(1, 1), padding=(3, 0), bias=False)
          (bn): BatchNorm2d(160, eps=0.001, momentum=0.1, affine=True, track_running_stats=True)
        )
        (branch7x7dbl_5): BasicConv2d(
          (conv): Conv2d(160, 192, kernel_size=(1, 7), stride=(1, 1), padding=(0, 3), bias=False)
          (bn): BatchNorm2d(192, eps=0.001, momentum=0.1, affine=True, track_running_stats=True)
        )
        (branch_pool): BasicConv2d(
          (conv): Conv2d(768, 192, kernel_size=(1, 1), stride=(1, 1), bias=False)
          (bn): BatchNorm2d(192, eps=0.001, momentum=0.1, affine=True, track_running_stats=True)
        )
      )
      (Mixed_6d): InceptionC(
        (branch1x1): BasicConv2d(
          (conv): Conv2d(768, 192, kernel_size=(1, 1), stride=(1, 1), bias=False)
          (bn): BatchNorm2d(192, eps=0.001, momentum=0.1, affine=True, track_running_stats=True)
        )
        (branch7x7_1): BasicConv2d(
          (conv): Conv2d(768, 160, kernel_size=(1, 1), stride=(1, 1), bias=False)
          (bn): BatchNorm2d(160, eps=0.001, momentum=0.1, affine=True, track_running_stats=True)
        )
        (branch7x7_2): BasicConv2d(
          (conv): Conv2d(160, 160, kernel_size=(1, 7), stride=(1, 1), padding=(0, 3), bias=False)
          (bn): BatchNorm2d(160, eps=0.001, momentum=0.1, affine=True, track_running_stats=True)
        )
        (branch7x7_3): BasicConv2d(
          (conv): Conv2d(160, 192, kernel_size=(7, 1), stride=(1, 1), padding=(3, 0), bias=False)
          (bn): BatchNorm2d(192, eps=0.001, momentum=0.1, affine=True, track_running_stats=True)
        )
        (branch7x7dbl_1): BasicConv2d(
          (conv): Conv2d(768, 160, kernel_size=(1, 1), stride=(1, 1), bias=False)
          (bn): BatchNorm2d(160, eps=0.001, momentum=0.1, affine=True, track_running_stats=True)
        )
        (branch7x7dbl_2): BasicConv2d(
          (conv): Conv2d(160, 160, kernel_size=(7, 1), stride=(1, 1), padding=(3, 0), bias=False)
          (bn): BatchNorm2d(160, eps=0.001, momentum=0.1, affine=True, track_running_stats=True)
        )
        (branch7x7dbl_3): BasicConv2d(
          (conv): Conv2d(160, 160, kernel_size=(1, 7), stride=(1, 1), padding=(0, 3), bias=False)
          (bn): BatchNorm2d(160, eps=0.001, momentum=0.1, affine=True, track_running_stats=True)
        )
        (branch7x7dbl_4): BasicConv2d(
          (conv): Conv2d(160, 160, kernel_size=(7, 1), stride=(1, 1), padding=(3, 0), bias=False)
          (bn): BatchNorm2d(160, eps=0.001, momentum=0.1, affine=True, track_running_stats=True)
        )
        (branch7x7dbl_5): BasicConv2d(
          (conv): Conv2d(160, 192, kernel_size=(1, 7), stride=(1, 1), padding=(0, 3), bias=False)
          (bn): BatchNorm2d(192, eps=0.001, momentum=0.1, affine=True, track_running_stats=True)
        )
        (branch_pool): BasicConv2d(
          (conv): Conv2d(768, 192, kernel_size=(1, 1), stride=(1, 1), bias=False)
          (bn): BatchNorm2d(192, eps=0.001, momentum=0.1, affine=True, track_running_stats=True)
        )
      )
      (Mixed_6e): InceptionC(
        (branch1x1): BasicConv2d(
          (conv): Conv2d(768, 192, kernel_size=(1, 1), stride=(1, 1), bias=False)
          (bn): BatchNorm2d(192, eps=0.001, momentum=0.1, affine=True, track_running_stats=True)
        )
        (branch7x7_1): BasicConv2d(
          (conv): Conv2d(768, 192, kernel_size=(1, 1), stride=(1, 1), bias=False)
          (bn): BatchNorm2d(192, eps=0.001, momentum=0.1, affine=True, track_running_stats=True)
        )
        (branch7x7_2): BasicConv2d(
          (conv): Conv2d(192, 192, kernel_size=(1, 7), stride=(1, 1), padding=(0, 3), bias=False)
          (bn): BatchNorm2d(192, eps=0.001, momentum=0.1, affine=True, track_running_stats=True)
        )
        (branch7x7_3): BasicConv2d(
          (conv): Conv2d(192, 192, kernel_size=(7, 1), stride=(1, 1), padding=(3, 0), bias=False)
          (bn): BatchNorm2d(192, eps=0.001, momentum=0.1, affine=True, track_running_stats=True)
        )
        (branch7x7dbl_1): BasicConv2d(
          (conv): Conv2d(768, 192, kernel_size=(1, 1), stride=(1, 1), bias=False)
          (bn): BatchNorm2d(192, eps=0.001, momentum=0.1, affine=True, track_running_stats=True)
        )
        (branch7x7dbl_2): BasicConv2d(
          (conv): Conv2d(192, 192, kernel_size=(7, 1), stride=(1, 1), padding=(3, 0), bias=False)
          (bn): BatchNorm2d(192, eps=0.001, momentum=0.1, affine=True, track_running_stats=True)
        )
        (branch7x7dbl_3): BasicConv2d(
          (conv): Conv2d(192, 192, kernel_size=(1, 7), stride=(1, 1), padding=(0, 3), bias=False)
          (bn): BatchNorm2d(192, eps=0.001, momentum=0.1, affine=True, track_running_stats=True)
        )
        (branch7x7dbl_4): BasicConv2d(
          (conv): Conv2d(192, 192, kernel_size=(7, 1), stride=(1, 1), padding=(3, 0), bias=False)
          (bn): BatchNorm2d(192, eps=0.001, momentum=0.1, affine=True, track_running_stats=True)
        )
        (branch7x7dbl_5): BasicConv2d(
          (conv): Conv2d(192, 192, kernel_size=(1, 7), stride=(1, 1), padding=(0, 3), bias=False)
          (bn): BatchNorm2d(192, eps=0.001, momentum=0.1, affine=True, track_running_stats=True)
        )
        (branch_pool): BasicConv2d(
          (conv): Conv2d(768, 192, kernel_size=(1, 1), stride=(1, 1), bias=False)
          (bn): BatchNorm2d(192, eps=0.001, momentum=0.1, affine=True, track_running_stats=True)
        )
      )
      (Mixed_7a): InceptionD(
        (branch3x3_1): BasicConv2d(
          (conv): Conv2d(768, 192, kernel_size=(1, 1), stride=(1, 1), bias=False)
          (bn): BatchNorm2d(192, eps=0.001, momentum=0.1, affine=True, track_running_stats=True)
        )
        (branch3x3_2): BasicConv2d(
          (conv): Conv2d(192, 320, kernel_size=(3, 3), stride=(2, 2), bias=False)
          (bn): BatchNorm2d(320, eps=0.001, momentum=0.1, affine=True, track_running_stats=True)
        )
        (branch7x7x3_1): BasicConv2d(
          (conv): Conv2d(768, 192, kernel_size=(1, 1), stride=(1, 1), bias=False)
          (bn): BatchNorm2d(192, eps=0.001, momentum=0.1, affine=True, track_running_stats=True)
        )
        (branch7x7x3_2): BasicConv2d(
          (conv): Conv2d(192, 192, kernel_size=(1, 7), stride=(1, 1), padding=(0, 3), bias=False)
          (bn): BatchNorm2d(192, eps=0.001, momentum=0.1, affine=True, track_running_stats=True)
        )
        (branch7x7x3_3): BasicConv2d(
          (conv): Conv2d(192, 192, kernel_size=(7, 1), stride=(1, 1), padding=(3, 0), bias=False)
          (bn): BatchNorm2d(192, eps=0.001, momentum=0.1, affine=True, track_running_stats=True)
        )
        (branch7x7x3_4): BasicConv2d(
          (conv): Conv2d(192, 192, kernel_size=(3, 3), stride=(2, 2), bias=False)
          (bn): BatchNorm2d(192, eps=0.001, momentum=0.1, affine=True, track_running_stats=True)
        )
      )
      (Mixed_7b): InceptionE_1(
        (branch1x1): BasicConv2d(
          (conv): Conv2d(1280, 320, kernel_size=(1, 1), stride=(1, 1), bias=False)
          (bn): BatchNorm2d(320, eps=0.001, momentum=0.1, affine=True, track_running_stats=True)
        )
        (branch3x3_1): BasicConv2d(
          (conv): Conv2d(1280, 384, kernel_size=(1, 1), stride=(1, 1), bias=False)
          (bn): BatchNorm2d(384, eps=0.001, momentum=0.1, affine=True, track_running_stats=True)
        )
        (branch3x3_2a): BasicConv2d(
          (conv): Conv2d(384, 384, kernel_size=(1, 3), stride=(1, 1), padding=(0, 1), bias=False)
          (bn): BatchNorm2d(384, eps=0.001, momentum=0.1, affine=True, track_running_stats=True)
        )
        (branch3x3_2b): BasicConv2d(
          (conv): Conv2d(384, 384, kernel_size=(3, 1), stride=(1, 1), padding=(1, 0), bias=False)
          (bn): BatchNorm2d(384, eps=0.001, momentum=0.1, affine=True, track_running_stats=True)
        )
        (branch3x3dbl_1): BasicConv2d(
          (conv): Conv2d(1280, 448, kernel_size=(1, 1), stride=(1, 1), bias=False)
          (bn): BatchNorm2d(448, eps=0.001, momentum=0.1, affine=True, track_running_stats=True)
        )
        (branch3x3dbl_2): BasicConv2d(
          (conv): Conv2d(448, 384, kernel_size=(3, 3), stride=(1, 1), padding=(1, 1), bias=False)
          (bn): BatchNorm2d(384, eps=0.001, momentum=0.1, affine=True, track_running_stats=True)
        )
        (branch3x3dbl_3a): BasicConv2d(
          (conv): Conv2d(384, 384, kernel_size=(1, 3), stride=(1, 1), padding=(0, 1), bias=False)
          (bn): BatchNorm2d(384, eps=0.001, momentum=0.1, affine=True, track_running_stats=True)
        )
        (branch3x3dbl_3b): BasicConv2d(
          (conv): Conv2d(384, 384, kernel_size=(3, 1), stride=(1, 1), padding=(1, 0), bias=False)
          (bn): BatchNorm2d(384, eps=0.001, momentum=0.1, affine=True, track_running_stats=True)
        )
        (branch_pool): BasicConv2d(
          (conv): Conv2d(1280, 192, kernel_size=(1, 1), stride=(1, 1), bias=False)
          (bn): BatchNorm2d(192, eps=0.001, momentum=0.1, affine=True, track_running_stats=True)
        )
      )
      (Mixed_7c): InceptionE_2(
        (branch1x1): BasicConv2d(
          (conv): Conv2d(2048, 320, kernel_size=(1, 1), stride=(1, 1), bias=False)
          (bn): BatchNorm2d(320, eps=0.001, momentum=0.1, affine=True, track_running_stats=True)
        )
        (branch3x3_1): BasicConv2d(
          (conv): Conv2d(2048, 384, kernel_size=(1, 1), stride=(1, 1), bias=False)
          (bn): BatchNorm2d(384, eps=0.001, momentum=0.1, affine=True, track_running_stats=True)
        )
        (branch3x3_2a): BasicConv2d(
          (conv): Conv2d(384, 384, kernel_size=(1, 3), stride=(1, 1), padding=(0, 1), bias=False)
          (bn): BatchNorm2d(384, eps=0.001, momentum=0.1, affine=True, track_running_stats=True)
        )
        (branch3x3_2b): BasicConv2d(
          (conv): Conv2d(384, 384, kernel_size=(3, 1), stride=(1, 1), padding=(1, 0), bias=False)
          (bn): BatchNorm2d(384, eps=0.001, momentum=0.1, affine=True, track_running_stats=True)
        )
        (branch3x3dbl_1): BasicConv2d(
          (conv): Conv2d(2048, 448, kernel_size=(1, 1), stride=(1, 1), bias=False)
          (bn): BatchNorm2d(448, eps=0.001, momentum=0.1, affine=True, track_running_stats=True)
        )
        (branch3x3dbl_2): BasicConv2d(
          (conv): Conv2d(448, 384, kernel_size=(3, 3), stride=(1, 1), padding=(1, 1), bias=False)
          (bn): BatchNorm2d(384, eps=0.001, momentum=0.1, affine=True, track_running_stats=True)
        )
        (branch3x3dbl_3a): BasicConv2d(
          (conv): Conv2d(384, 384, kernel_size=(1, 3), stride=(1, 1), padding=(0, 1), bias=False)
          (bn): BatchNorm2d(384, eps=0.001, momentum=0.1, affine=True, track_running_stats=True)
        )
        (branch3x3dbl_3b): BasicConv2d(
          (conv): Conv2d(384, 384, kernel_size=(3, 1), stride=(1, 1), padding=(1, 0), bias=False)
          (bn): BatchNorm2d(384, eps=0.001, momentum=0.1, affine=True, track_running_stats=True)
        )
        (branch_pool): BasicConv2d(
          (conv): Conv2d(2048, 192, kernel_size=(1, 1), stride=(1, 1), bias=False)
          (bn): BatchNorm2d(192, eps=0.001, momentum=0.1, affine=True, track_running_stats=True)
        )
      )
      (AvgPool): AdaptiveAvgPool2d(output_size=(1, 1))
      (fc): Linear(in_features=2048, out_features=1008, bias=True)
    )
  )
), FID_CLIP(
  (clip): CLIP(
    (visual): VisionTransformer(
      (conv1): Conv2d(3, 768, kernel_size=(32, 32), stride=(32, 32), bias=False)
      (ln_pre): LayerNorm((768,), eps=1e-05, elementwise_affine=True)
      (transformer): Transformer(
        (resblocks): Sequential(
          (0): ResidualAttentionBlock(
            (attn): MultiheadAttention(
              (out_proj): NonDynamicallyQuantizableLinear(in_features=768, out_features=768, bias=True)
            )
            (ln_1): LayerNorm((768,), eps=1e-05, elementwise_affine=True)
            (mlp): Sequential(
              (c_fc): Linear(in_features=768, out_features=3072, bias=True)
              (gelu): QuickGELU()
              (c_proj): Linear(in_features=3072, out_features=768, bias=True)
            )
            (ln_2): LayerNorm((768,), eps=1e-05, elementwise_affine=True)
          )
          (1): ResidualAttentionBlock(
            (attn): MultiheadAttention(
              (out_proj): NonDynamicallyQuantizableLinear(in_features=768, out_features=768, bias=True)
            )
            (ln_1): LayerNorm((768,), eps=1e-05, elementwise_affine=True)
            (mlp): Sequential(
              (c_fc): Linear(in_features=768, out_features=3072, bias=True)
              (gelu): QuickGELU()
              (c_proj): Linear(in_features=3072, out_features=768, bias=True)
            )
            (ln_2): LayerNorm((768,), eps=1e-05, elementwise_affine=True)
          )
          (2): ResidualAttentionBlock(
            (attn): MultiheadAttention(
              (out_proj): NonDynamicallyQuantizableLinear(in_features=768, out_features=768, bias=True)
            )
            (ln_1): LayerNorm((768,), eps=1e-05, elementwise_affine=True)
            (mlp): Sequential(
              (c_fc): Linear(in_features=768, out_features=3072, bias=True)
              (gelu): QuickGELU()
              (c_proj): Linear(in_features=3072, out_features=768, bias=True)
            )
            (ln_2): LayerNorm((768,), eps=1e-05, elementwise_affine=True)
          )
          (3): ResidualAttentionBlock(
            (attn): MultiheadAttention(
              (out_proj): NonDynamicallyQuantizableLinear(in_features=768, out_features=768, bias=True)
            )
            (ln_1): LayerNorm((768,), eps=1e-05, elementwise_affine=True)
            (mlp): Sequential(
              (c_fc): Linear(in_features=768, out_features=3072, bias=True)
              (gelu): QuickGELU()
              (c_proj): Linear(in_features=3072, out_features=768, bias=True)
            )
            (ln_2): LayerNorm((768,), eps=1e-05, elementwise_affine=True)
          )
          (4): ResidualAttentionBlock(
            (attn): MultiheadAttention(
              (out_proj): NonDynamicallyQuantizableLinear(in_features=768, out_features=768, bias=True)
            )
            (ln_1): LayerNorm((768,), eps=1e-05, elementwise_affine=True)
            (mlp): Sequential(
              (c_fc): Linear(in_features=768, out_features=3072, bias=True)
              (gelu): QuickGELU()
              (c_proj): Linear(in_features=3072, out_features=768, bias=True)
            )
            (ln_2): LayerNorm((768,), eps=1e-05, elementwise_affine=True)
          )
          (5): ResidualAttentionBlock(
            (attn): MultiheadAttention(
              (out_proj): NonDynamicallyQuantizableLinear(in_features=768, out_features=768, bias=True)
            )
            (ln_1): LayerNorm((768,), eps=1e-05, elementwise_affine=True)
            (mlp): Sequential(
              (c_fc): Linear(in_features=768, out_features=3072, bias=True)
              (gelu): QuickGELU()
              (c_proj): Linear(in_features=3072, out_features=768, bias=True)
            )
            (ln_2): LayerNorm((768,), eps=1e-05, elementwise_affine=True)
          )
          (6): ResidualAttentionBlock(
            (attn): MultiheadAttention(
              (out_proj): NonDynamicallyQuantizableLinear(in_features=768, out_features=768, bias=True)
            )
            (ln_1): LayerNorm((768,), eps=1e-05, elementwise_affine=True)
            (mlp): Sequential(
              (c_fc): Linear(in_features=768, out_features=3072, bias=True)
              (gelu): QuickGELU()
              (c_proj): Linear(in_features=3072, out_features=768, bias=True)
            )
            (ln_2): LayerNorm((768,), eps=1e-05, elementwise_affine=True)
          )
          (7): ResidualAttentionBlock(
            (attn): MultiheadAttention(
              (out_proj): NonDynamicallyQuantizableLinear(in_features=768, out_features=768, bias=True)
            )
            (ln_1): LayerNorm((768,), eps=1e-05, elementwise_affine=True)
            (mlp): Sequential(
              (c_fc): Linear(in_features=768, out_features=3072, bias=True)
              (gelu): QuickGELU()
              (c_proj): Linear(in_features=3072, out_features=768, bias=True)
            )
            (ln_2): LayerNorm((768,), eps=1e-05, elementwise_affine=True)
          )
          (8): ResidualAttentionBlock(
            (attn): MultiheadAttention(
              (out_proj): NonDynamicallyQuantizableLinear(in_features=768, out_features=768, bias=True)
            )
            (ln_1): LayerNorm((768,), eps=1e-05, elementwise_affine=True)
            (mlp): Sequential(
              (c_fc): Linear(in_features=768, out_features=3072, bias=True)
              (gelu): QuickGELU()
              (c_proj): Linear(in_features=3072, out_features=768, bias=True)
            )
            (ln_2): LayerNorm((768,), eps=1e-05, elementwise_affine=True)
          )
          (9): ResidualAttentionBlock(
            (attn): MultiheadAttention(
              (out_proj): NonDynamicallyQuantizableLinear(in_features=768, out_features=768, bias=True)
            )
            (ln_1): LayerNorm((768,), eps=1e-05, elementwise_affine=True)
            (mlp): Sequential(
              (c_fc): Linear(in_features=768, out_features=3072, bias=True)
              (gelu): QuickGELU()
              (c_proj): Linear(in_features=3072, out_features=768, bias=True)
            )
            (ln_2): LayerNorm((768,), eps=1e-05, elementwise_affine=True)
          )
          (10): ResidualAttentionBlock(
            (attn): MultiheadAttention(
              (out_proj): NonDynamicallyQuantizableLinear(in_features=768, out_features=768, bias=True)
            )
            (ln_1): LayerNorm((768,), eps=1e-05, elementwise_affine=True)
            (mlp): Sequential(
              (c_fc): Linear(in_features=768, out_features=3072, bias=True)
              (gelu): QuickGELU()
              (c_proj): Linear(in_features=3072, out_features=768, bias=True)
            )
            (ln_2): LayerNorm((768,), eps=1e-05, elementwise_affine=True)
          )
          (11): ResidualAttentionBlock(
            (attn): MultiheadAttention(
              (out_proj): NonDynamicallyQuantizableLinear(in_features=768, out_features=768, bias=True)
            )
            (ln_1): LayerNorm((768,), eps=1e-05, elementwise_affine=True)
            (mlp): Sequential(
              (c_fc): Linear(in_features=768, out_features=3072, bias=True)
              (gelu): QuickGELU()
              (c_proj): Linear(in_features=3072, out_features=768, bias=True)
            )
            (ln_2): LayerNorm((768,), eps=1e-05, elementwise_affine=True)
          )
        )
      )
      (ln_post): LayerNorm((768,), eps=1e-05, elementwise_affine=True)
    )
    (transformer): Transformer(
      (resblocks): Sequential(
        (0): ResidualAttentionBlock(
          (attn): MultiheadAttention(
            (out_proj): NonDynamicallyQuantizableLinear(in_features=512, out_features=512, bias=True)
          )
          (ln_1): LayerNorm((512,), eps=1e-05, elementwise_affine=True)
          (mlp): Sequential(
            (c_fc): Linear(in_features=512, out_features=2048, bias=True)
            (gelu): QuickGELU()
            (c_proj): Linear(in_features=2048, out_features=512, bias=True)
          )
          (ln_2): LayerNorm((512,), eps=1e-05, elementwise_affine=True)
        )
        (1): ResidualAttentionBlock(
          (attn): MultiheadAttention(
            (out_proj): NonDynamicallyQuantizableLinear(in_features=512, out_features=512, bias=True)
          )
          (ln_1): LayerNorm((512,), eps=1e-05, elementwise_affine=True)
          (mlp): Sequential(
            (c_fc): Linear(in_features=512, out_features=2048, bias=True)
            (gelu): QuickGELU()
            (c_proj): Linear(in_features=2048, out_features=512, bias=True)
          )
          (ln_2): LayerNorm((512,), eps=1e-05, elementwise_affine=True)
        )
        (2): ResidualAttentionBlock(
          (attn): MultiheadAttention(
            (out_proj): NonDynamicallyQuantizableLinear(in_features=512, out_features=512, bias=True)
          )
          (ln_1): LayerNorm((512,), eps=1e-05, elementwise_affine=True)
          (mlp): Sequential(
            (c_fc): Linear(in_features=512, out_features=2048, bias=True)
            (gelu): QuickGELU()
            (c_proj): Linear(in_features=2048, out_features=512, bias=True)
          )
          (ln_2): LayerNorm((512,), eps=1e-05, elementwise_affine=True)
        )
        (3): ResidualAttentionBlock(
          (attn): MultiheadAttention(
            (out_proj): NonDynamicallyQuantizableLinear(in_features=512, out_features=512, bias=True)
          )
          (ln_1): LayerNorm((512,), eps=1e-05, elementwise_affine=True)
          (mlp): Sequential(
            (c_fc): Linear(in_features=512, out_features=2048, bias=True)
            (gelu): QuickGELU()
            (c_proj): Linear(in_features=2048, out_features=512, bias=True)
          )
          (ln_2): LayerNorm((512,), eps=1e-05, elementwise_affine=True)
        )
        (4): ResidualAttentionBlock(
          (attn): MultiheadAttention(
            (out_proj): NonDynamicallyQuantizableLinear(in_features=512, out_features=512, bias=True)
          )
          (ln_1): LayerNorm((512,), eps=1e-05, elementwise_affine=True)
          (mlp): Sequential(
            (c_fc): Linear(in_features=512, out_features=2048, bias=True)
            (gelu): QuickGELU()
            (c_proj): Linear(in_features=2048, out_features=512, bias=True)
          )
          (ln_2): LayerNorm((512,), eps=1e-05, elementwise_affine=True)
        )
        (5): ResidualAttentionBlock(
          (attn): MultiheadAttention(
            (out_proj): NonDynamicallyQuantizableLinear(in_features=512, out_features=512, bias=True)
          )
          (ln_1): LayerNorm((512,), eps=1e-05, elementwise_affine=True)
          (mlp): Sequential(
            (c_fc): Linear(in_features=512, out_features=2048, bias=True)
            (gelu): QuickGELU()
            (c_proj): Linear(in_features=2048, out_features=512, bias=True)
          )
          (ln_2): LayerNorm((512,), eps=1e-05, elementwise_affine=True)
        )
        (6): ResidualAttentionBlock(
          (attn): MultiheadAttention(
            (out_proj): NonDynamicallyQuantizableLinear(in_features=512, out_features=512, bias=True)
          )
          (ln_1): LayerNorm((512,), eps=1e-05, elementwise_affine=True)
          (mlp): Sequential(
            (c_fc): Linear(in_features=512, out_features=2048, bias=True)
            (gelu): QuickGELU()
            (c_proj): Linear(in_features=2048, out_features=512, bias=True)
          )
          (ln_2): LayerNorm((512,), eps=1e-05, elementwise_affine=True)
        )
        (7): ResidualAttentionBlock(
          (attn): MultiheadAttention(
            (out_proj): NonDynamicallyQuantizableLinear(in_features=512, out_features=512, bias=True)
          )
          (ln_1): LayerNorm((512,), eps=1e-05, elementwise_affine=True)
          (mlp): Sequential(
            (c_fc): Linear(in_features=512, out_features=2048, bias=True)
            (gelu): QuickGELU()
            (c_proj): Linear(in_features=2048, out_features=512, bias=True)
          )
          (ln_2): LayerNorm((512,), eps=1e-05, elementwise_affine=True)
        )
        (8): ResidualAttentionBlock(
          (attn): MultiheadAttention(
            (out_proj): NonDynamicallyQuantizableLinear(in_features=512, out_features=512, bias=True)
          )
          (ln_1): LayerNorm((512,), eps=1e-05, elementwise_affine=True)
          (mlp): Sequential(
            (c_fc): Linear(in_features=512, out_features=2048, bias=True)
            (gelu): QuickGELU()
            (c_proj): Linear(in_features=2048, out_features=512, bias=True)
          )
          (ln_2): LayerNorm((512,), eps=1e-05, elementwise_affine=True)
        )
        (9): ResidualAttentionBlock(
          (attn): MultiheadAttention(
            (out_proj): NonDynamicallyQuantizableLinear(in_features=512, out_features=512, bias=True)
          )
          (ln_1): LayerNorm((512,), eps=1e-05, elementwise_affine=True)
          (mlp): Sequential(
            (c_fc): Linear(in_features=512, out_features=2048, bias=True)
            (gelu): QuickGELU()
            (c_proj): Linear(in_features=2048, out_features=512, bias=True)
          )
          (ln_2): LayerNorm((512,), eps=1e-05, elementwise_affine=True)
        )
        (10): ResidualAttentionBlock(
          (attn): MultiheadAttention(
            (out_proj): NonDynamicallyQuantizableLinear(in_features=512, out_features=512, bias=True)
          )
          (ln_1): LayerNorm((512,), eps=1e-05, elementwise_affine=True)
          (mlp): Sequential(
            (c_fc): Linear(in_features=512, out_features=2048, bias=True)
            (gelu): QuickGELU()
            (c_proj): Linear(in_features=2048, out_features=512, bias=True)
          )
          (ln_2): LayerNorm((512,), eps=1e-05, elementwise_affine=True)
        )
        (11): ResidualAttentionBlock(
          (attn): MultiheadAttention(
            (out_proj): NonDynamicallyQuantizableLinear(in_features=512, out_features=512, bias=True)
          )
          (ln_1): LayerNorm((512,), eps=1e-05, elementwise_affine=True)
          (mlp): Sequential(
            (c_fc): Linear(in_features=512, out_features=2048, bias=True)
            (gelu): QuickGELU()
            (c_proj): Linear(in_features=2048, out_features=512, bias=True)
          )
          (ln_2): LayerNorm((512,), eps=1e-05, elementwise_affine=True)
        )
      )
    )
    (token_embedding): Embedding(49408, 512)
    (ln_final): LayerNorm((512,), eps=1e-05, elementwise_affine=True)
  )
), FID_CLIP(
  (clip): CustomTextCLIP(
    (visual): TimmModel(
      (trunk): VisionTransformer(
        (patch_embed): PatchEmbed(
          (proj): Conv2d(3, 768, kernel_size=(16, 16), stride=(16, 16))
          (norm): Identity()
        )
        (pos_drop): Dropout(p=0.0, inplace=False)
        (patch_drop): Identity()
        (norm_pre): Identity()
        (blocks): Sequential(
          (0): Block(
            (norm1): LayerNorm((768,), eps=1e-06, elementwise_affine=True)
            (attn): Attention(
              (qkv): Linear(in_features=768, out_features=2304, bias=True)
              (q_norm): Identity()
              (k_norm): Identity()
              (attn_drop): Dropout(p=0.0, inplace=False)
              (proj): Linear(in_features=768, out_features=768, bias=True)
              (proj_drop): Dropout(p=0.0, inplace=False)
            )
            (ls1): Identity()
            (drop_path1): Identity()
            (norm2): LayerNorm((768,), eps=1e-06, elementwise_affine=True)
            (mlp): Mlp(
              (fc1): Linear(in_features=768, out_features=3072, bias=True)
              (act): GELU(approximate='none')
              (drop1): Dropout(p=0.0, inplace=False)
              (norm): Identity()
              (fc2): Linear(in_features=3072, out_features=768, bias=True)
              (drop2): Dropout(p=0.0, inplace=False)
            )
            (ls2): Identity()
            (drop_path2): Identity()
          )
          (1): Block(
            (norm1): LayerNorm((768,), eps=1e-06, elementwise_affine=True)
            (attn): Attention(
              (qkv): Linear(in_features=768, out_features=2304, bias=True)
              (q_norm): Identity()
              (k_norm): Identity()
              (attn_drop): Dropout(p=0.0, inplace=False)
              (proj): Linear(in_features=768, out_features=768, bias=True)
              (proj_drop): Dropout(p=0.0, inplace=False)
            )
            (ls1): Identity()
            (drop_path1): Identity()
            (norm2): LayerNorm((768,), eps=1e-06, elementwise_affine=True)
            (mlp): Mlp(
              (fc1): Linear(in_features=768, out_features=3072, bias=True)
              (act): GELU(approximate='none')
              (drop1): Dropout(p=0.0, inplace=False)
              (norm): Identity()
              (fc2): Linear(in_features=3072, out_features=768, bias=True)
              (drop2): Dropout(p=0.0, inplace=False)
            )
            (ls2): Identity()
            (drop_path2): Identity()
          )
          (2): Block(
            (norm1): LayerNorm((768,), eps=1e-06, elementwise_affine=True)
            (attn): Attention(
              (qkv): Linear(in_features=768, out_features=2304, bias=True)
              (q_norm): Identity()
              (k_norm): Identity()
              (attn_drop): Dropout(p=0.0, inplace=False)
              (proj): Linear(in_features=768, out_features=768, bias=True)
              (proj_drop): Dropout(p=0.0, inplace=False)
            )
            (ls1): Identity()
            (drop_path1): Identity()
            (norm2): LayerNorm((768,), eps=1e-06, elementwise_affine=True)
            (mlp): Mlp(
              (fc1): Linear(in_features=768, out_features=3072, bias=True)
              (act): GELU(approximate='none')
              (drop1): Dropout(p=0.0, inplace=False)
              (norm): Identity()
              (fc2): Linear(in_features=3072, out_features=768, bias=True)
              (drop2): Dropout(p=0.0, inplace=False)
            )
            (ls2): Identity()
            (drop_path2): Identity()
          )
          (3): Block(
            (norm1): LayerNorm((768,), eps=1e-06, elementwise_affine=True)
            (attn): Attention(
              (qkv): Linear(in_features=768, out_features=2304, bias=True)
              (q_norm): Identity()
              (k_norm): Identity()
              (attn_drop): Dropout(p=0.0, inplace=False)
              (proj): Linear(in_features=768, out_features=768, bias=True)
              (proj_drop): Dropout(p=0.0, inplace=False)
            )
            (ls1): Identity()
            (drop_path1): Identity()
            (norm2): LayerNorm((768,), eps=1e-06, elementwise_affine=True)
            (mlp): Mlp(
              (fc1): Linear(in_features=768, out_features=3072, bias=True)
              (act): GELU(approximate='none')
              (drop1): Dropout(p=0.0, inplace=False)
              (norm): Identity()
              (fc2): Linear(in_features=3072, out_features=768, bias=True)
              (drop2): Dropout(p=0.0, inplace=False)
            )
            (ls2): Identity()
            (drop_path2): Identity()
          )
          (4): Block(
            (norm1): LayerNorm((768,), eps=1e-06, elementwise_affine=True)
            (attn): Attention(
              (qkv): Linear(in_features=768, out_features=2304, bias=True)
              (q_norm): Identity()
              (k_norm): Identity()
              (attn_drop): Dropout(p=0.0, inplace=False)
              (proj): Linear(in_features=768, out_features=768, bias=True)
              (proj_drop): Dropout(p=0.0, inplace=False)
            )
            (ls1): Identity()
            (drop_path1): Identity()
            (norm2): LayerNorm((768,), eps=1e-06, elementwise_affine=True)
            (mlp): Mlp(
              (fc1): Linear(in_features=768, out_features=3072, bias=True)
              (act): GELU(approximate='none')
              (drop1): Dropout(p=0.0, inplace=False)
              (norm): Identity()
              (fc2): Linear(in_features=3072, out_features=768, bias=True)
              (drop2): Dropout(p=0.0, inplace=False)
            )
            (ls2): Identity()
            (drop_path2): Identity()
          )
          (5): Block(
            (norm1): LayerNorm((768,), eps=1e-06, elementwise_affine=True)
            (attn): Attention(
              (qkv): Linear(in_features=768, out_features=2304, bias=True)
              (q_norm): Identity()
              (k_norm): Identity()
              (attn_drop): Dropout(p=0.0, inplace=False)
              (proj): Linear(in_features=768, out_features=768, bias=True)
              (proj_drop): Dropout(p=0.0, inplace=False)
            )
            (ls1): Identity()
            (drop_path1): Identity()
            (norm2): LayerNorm((768,), eps=1e-06, elementwise_affine=True)
            (mlp): Mlp(
              (fc1): Linear(in_features=768, out_features=3072, bias=True)
              (act): GELU(approximate='none')
              (drop1): Dropout(p=0.0, inplace=False)
              (norm): Identity()
              (fc2): Linear(in_features=3072, out_features=768, bias=True)
              (drop2): Dropout(p=0.0, inplace=False)
            )
            (ls2): Identity()
            (drop_path2): Identity()
          )
          (6): Block(
            (norm1): LayerNorm((768,), eps=1e-06, elementwise_affine=True)
            (attn): Attention(
              (qkv): Linear(in_features=768, out_features=2304, bias=True)
              (q_norm): Identity()
              (k_norm): Identity()
              (attn_drop): Dropout(p=0.0, inplace=False)
              (proj): Linear(in_features=768, out_features=768, bias=True)
              (proj_drop): Dropout(p=0.0, inplace=False)
            )
            (ls1): Identity()
            (drop_path1): Identity()
            (norm2): LayerNorm((768,), eps=1e-06, elementwise_affine=True)
            (mlp): Mlp(
              (fc1): Linear(in_features=768, out_features=3072, bias=True)
              (act): GELU(approximate='none')
              (drop1): Dropout(p=0.0, inplace=False)
              (norm): Identity()
              (fc2): Linear(in_features=3072, out_features=768, bias=True)
              (drop2): Dropout(p=0.0, inplace=False)
            )
            (ls2): Identity()
            (drop_path2): Identity()
          )
          (7): Block(
            (norm1): LayerNorm((768,), eps=1e-06, elementwise_affine=True)
            (attn): Attention(
              (qkv): Linear(in_features=768, out_features=2304, bias=True)
              (q_norm): Identity()
              (k_norm): Identity()
              (attn_drop): Dropout(p=0.0, inplace=False)
              (proj): Linear(in_features=768, out_features=768, bias=True)
              (proj_drop): Dropout(p=0.0, inplace=False)
            )
            (ls1): Identity()
            (drop_path1): Identity()
            (norm2): LayerNorm((768,), eps=1e-06, elementwise_affine=True)
            (mlp): Mlp(
              (fc1): Linear(in_features=768, out_features=3072, bias=True)
              (act): GELU(approximate='none')
              (drop1): Dropout(p=0.0, inplace=False)
              (norm): Identity()
              (fc2): Linear(in_features=3072, out_features=768, bias=True)
              (drop2): Dropout(p=0.0, inplace=False)
            )
            (ls2): Identity()
            (drop_path2): Identity()
          )
          (8): Block(
            (norm1): LayerNorm((768,), eps=1e-06, elementwise_affine=True)
            (attn): Attention(
              (qkv): Linear(in_features=768, out_features=2304, bias=True)
              (q_norm): Identity()
              (k_norm): Identity()
              (attn_drop): Dropout(p=0.0, inplace=False)
              (proj): Linear(in_features=768, out_features=768, bias=True)
              (proj_drop): Dropout(p=0.0, inplace=False)
            )
            (ls1): Identity()
            (drop_path1): Identity()
            (norm2): LayerNorm((768,), eps=1e-06, elementwise_affine=True)
            (mlp): Mlp(
              (fc1): Linear(in_features=768, out_features=3072, bias=True)
              (act): GELU(approximate='none')
              (drop1): Dropout(p=0.0, inplace=False)
              (norm): Identity()
              (fc2): Linear(in_features=3072, out_features=768, bias=True)
              (drop2): Dropout(p=0.0, inplace=False)
            )
            (ls2): Identity()
            (drop_path2): Identity()
          )
          (9): Block(
            (norm1): LayerNorm((768,), eps=1e-06, elementwise_affine=True)
            (attn): Attention(
              (qkv): Linear(in_features=768, out_features=2304, bias=True)
              (q_norm): Identity()
              (k_norm): Identity()
              (attn_drop): Dropout(p=0.0, inplace=False)
              (proj): Linear(in_features=768, out_features=768, bias=True)
              (proj_drop): Dropout(p=0.0, inplace=False)
            )
            (ls1): Identity()
            (drop_path1): Identity()
            (norm2): LayerNorm((768,), eps=1e-06, elementwise_affine=True)
            (mlp): Mlp(
              (fc1): Linear(in_features=768, out_features=3072, bias=True)
              (act): GELU(approximate='none')
              (drop1): Dropout(p=0.0, inplace=False)
              (norm): Identity()
              (fc2): Linear(in_features=3072, out_features=768, bias=True)
              (drop2): Dropout(p=0.0, inplace=False)
            )
            (ls2): Identity()
            (drop_path2): Identity()
          )
          (10): Block(
            (norm1): LayerNorm((768,), eps=1e-06, elementwise_affine=True)
            (attn): Attention(
              (qkv): Linear(in_features=768, out_features=2304, bias=True)
              (q_norm): Identity()
              (k_norm): Identity()
              (attn_drop): Dropout(p=0.0, inplace=False)
              (proj): Linear(in_features=768, out_features=768, bias=True)
              (proj_drop): Dropout(p=0.0, inplace=False)
            )
            (ls1): Identity()
            (drop_path1): Identity()
            (norm2): LayerNorm((768,), eps=1e-06, elementwise_affine=True)
            (mlp): Mlp(
              (fc1): Linear(in_features=768, out_features=3072, bias=True)
              (act): GELU(approximate='none')
              (drop1): Dropout(p=0.0, inplace=False)
              (norm): Identity()
              (fc2): Linear(in_features=3072, out_features=768, bias=True)
              (drop2): Dropout(p=0.0, inplace=False)
            )
            (ls2): Identity()
            (drop_path2): Identity()
          )
          (11): Block(
            (norm1): LayerNorm((768,), eps=1e-06, elementwise_affine=True)
            (attn): Attention(
              (qkv): Linear(in_features=768, out_features=2304, bias=True)
              (q_norm): Identity()
              (k_norm): Identity()
              (attn_drop): Dropout(p=0.0, inplace=False)
              (proj): Linear(in_features=768, out_features=768, bias=True)
              (proj_drop): Dropout(p=0.0, inplace=False)
            )
            (ls1): Identity()
            (drop_path1): Identity()
            (norm2): LayerNorm((768,), eps=1e-06, elementwise_affine=True)
            (mlp): Mlp(
              (fc1): Linear(in_features=768, out_features=3072, bias=True)
              (act): GELU(approximate='none')
              (drop1): Dropout(p=0.0, inplace=False)
              (norm): Identity()
              (fc2): Linear(in_features=3072, out_features=768, bias=True)
              (drop2): Dropout(p=0.0, inplace=False)
            )
            (ls2): Identity()
            (drop_path2): Identity()
          )
        )
        (norm): LayerNorm((768,), eps=1e-06, elementwise_affine=True)
        (fc_norm): Identity()
        (head_drop): Dropout(p=0.0, inplace=False)
        (head): Identity()
      )
      (head): Sequential(
        (drop): Dropout(p=0.0, inplace=False)
        (proj): Linear(in_features=768, out_features=512, bias=False)
      )
    )
    (text): HFTextEncoder(
      (transformer): BertModel(
        (embeddings): BertEmbeddings(
          (word_embeddings): Embedding(30522, 768, padding_idx=0)
          (position_embeddings): Embedding(512, 768)
          (token_type_embeddings): Embedding(2, 768)
          (LayerNorm): LayerNorm((768,), eps=1e-12, elementwise_affine=True)
          (dropout): Dropout(p=0.1, inplace=False)
        )
        (encoder): BertEncoder(
          (layer): ModuleList(
            (0-11): 12 x BertLayer(
              (attention): BertAttention(
                (self): BertSelfAttention(
                  (query): Linear(in_features=768, out_features=768, bias=True)
                  (key): Linear(in_features=768, out_features=768, bias=True)
                  (value): Linear(in_features=768, out_features=768, bias=True)
                  (dropout): Dropout(p=0.1, inplace=False)
                )
                (output): BertSelfOutput(
                  (dense): Linear(in_features=768, out_features=768, bias=True)
                  (LayerNorm): LayerNorm((768,), eps=1e-12, elementwise_affine=True)
                  (dropout): Dropout(p=0.1, inplace=False)
                )
              )
              (intermediate): BertIntermediate(
                (dense): Linear(in_features=768, out_features=3072, bias=True)
                (intermediate_act_fn): GELUActivation()
              )
              (output): BertOutput(
                (dense): Linear(in_features=3072, out_features=768, bias=True)
                (LayerNorm): LayerNorm((768,), eps=1e-12, elementwise_affine=True)
                (dropout): Dropout(p=0.1, inplace=False)
              )
            )
          )
        )
      )
      (pooler): ClsLastHiddenStatePooler()
      (proj): Sequential(
        (0): Linear(in_features=768, out_features=640, bias=False)
        (1): GELU(approximate='none')
        (2): Linear(in_features=640, out_features=512, bias=False)
      )
    )
  )
))
Reached end on node 1 with result (PSNR(
  (func): _PeakSignalNoiseRatio()
), MSE(), FID_Inception(
  (func): FrechetInceptionDistance(
    (inception): NoTrainInceptionV3(
      (Conv2d_1a_3x3): BasicConv2d(
        (conv): Conv2d(3, 32, kernel_size=(3, 3), stride=(2, 2), bias=False)
        (bn): BatchNorm2d(32, eps=0.001, momentum=0.1, affine=True, track_running_stats=True)
      )
      (Conv2d_2a_3x3): BasicConv2d(
        (conv): Conv2d(32, 32, kernel_size=(3, 3), stride=(1, 1), bias=False)
        (bn): BatchNorm2d(32, eps=0.001, momentum=0.1, affine=True, track_running_stats=True)
      )
      (Conv2d_2b_3x3): BasicConv2d(
        (conv): Conv2d(32, 64, kernel_size=(3, 3), stride=(1, 1), padding=(1, 1), bias=False)
        (bn): BatchNorm2d(64, eps=0.001, momentum=0.1, affine=True, track_running_stats=True)
      )
      (MaxPool_1): MaxPool2d(kernel_size=3, stride=2, padding=0, dilation=1, ceil_mode=False)
      (Conv2d_3b_1x1): BasicConv2d(
        (conv): Conv2d(64, 80, kernel_size=(1, 1), stride=(1, 1), bias=False)
        (bn): BatchNorm2d(80, eps=0.001, momentum=0.1, affine=True, track_running_stats=True)
      )
      (Conv2d_4a_3x3): BasicConv2d(
        (conv): Conv2d(80, 192, kernel_size=(3, 3), stride=(1, 1), bias=False)
        (bn): BatchNorm2d(192, eps=0.001, momentum=0.1, affine=True, track_running_stats=True)
      )
      (MaxPool_2): MaxPool2d(kernel_size=3, stride=2, padding=0, dilation=1, ceil_mode=False)
      (Mixed_5b): InceptionA(
        (branch1x1): BasicConv2d(
          (conv): Conv2d(192, 64, kernel_size=(1, 1), stride=(1, 1), bias=False)
          (bn): BatchNorm2d(64, eps=0.001, momentum=0.1, affine=True, track_running_stats=True)
        )
        (branch5x5_1): BasicConv2d(
          (conv): Conv2d(192, 48, kernel_size=(1, 1), stride=(1, 1), bias=False)
          (bn): BatchNorm2d(48, eps=0.001, momentum=0.1, affine=True, track_running_stats=True)
        )
        (branch5x5_2): BasicConv2d(
          (conv): Conv2d(48, 64, kernel_size=(5, 5), stride=(1, 1), padding=(2, 2), bias=False)
          (bn): BatchNorm2d(64, eps=0.001, momentum=0.1, affine=True, track_running_stats=True)
        )
        (branch3x3dbl_1): BasicConv2d(
          (conv): Conv2d(192, 64, kernel_size=(1, 1), stride=(1, 1), bias=False)
          (bn): BatchNorm2d(64, eps=0.001, momentum=0.1, affine=True, track_running_stats=True)
        )
        (branch3x3dbl_2): BasicConv2d(
          (conv): Conv2d(64, 96, kernel_size=(3, 3), stride=(1, 1), padding=(1, 1), bias=False)
          (bn): BatchNorm2d(96, eps=0.001, momentum=0.1, affine=True, track_running_stats=True)
        )
        (branch3x3dbl_3): BasicConv2d(
          (conv): Conv2d(96, 96, kernel_size=(3, 3), stride=(1, 1), padding=(1, 1), bias=False)
          (bn): BatchNorm2d(96, eps=0.001, momentum=0.1, affine=True, track_running_stats=True)
        )
        (branch_pool): BasicConv2d(
          (conv): Conv2d(192, 32, kernel_size=(1, 1), stride=(1, 1), bias=False)
          (bn): BatchNorm2d(32, eps=0.001, momentum=0.1, affine=True, track_running_stats=True)
        )
      )
      (Mixed_5c): InceptionA(
        (branch1x1): BasicConv2d(
          (conv): Conv2d(256, 64, kernel_size=(1, 1), stride=(1, 1), bias=False)
          (bn): BatchNorm2d(64, eps=0.001, momentum=0.1, affine=True, track_running_stats=True)
        )
        (branch5x5_1): BasicConv2d(
          (conv): Conv2d(256, 48, kernel_size=(1, 1), stride=(1, 1), bias=False)
          (bn): BatchNorm2d(48, eps=0.001, momentum=0.1, affine=True, track_running_stats=True)
        )
        (branch5x5_2): BasicConv2d(
          (conv): Conv2d(48, 64, kernel_size=(5, 5), stride=(1, 1), padding=(2, 2), bias=False)
          (bn): BatchNorm2d(64, eps=0.001, momentum=0.1, affine=True, track_running_stats=True)
        )
        (branch3x3dbl_1): BasicConv2d(
          (conv): Conv2d(256, 64, kernel_size=(1, 1), stride=(1, 1), bias=False)
          (bn): BatchNorm2d(64, eps=0.001, momentum=0.1, affine=True, track_running_stats=True)
        )
        (branch3x3dbl_2): BasicConv2d(
          (conv): Conv2d(64, 96, kernel_size=(3, 3), stride=(1, 1), padding=(1, 1), bias=False)
          (bn): BatchNorm2d(96, eps=0.001, momentum=0.1, affine=True, track_running_stats=True)
        )
        (branch3x3dbl_3): BasicConv2d(
          (conv): Conv2d(96, 96, kernel_size=(3, 3), stride=(1, 1), padding=(1, 1), bias=False)
          (bn): BatchNorm2d(96, eps=0.001, momentum=0.1, affine=True, track_running_stats=True)
        )
        (branch_pool): BasicConv2d(
          (conv): Conv2d(256, 64, kernel_size=(1, 1), stride=(1, 1), bias=False)
          (bn): BatchNorm2d(64, eps=0.001, momentum=0.1, affine=True, track_running_stats=True)
        )
      )
      (Mixed_5d): InceptionA(
        (branch1x1): BasicConv2d(
          (conv): Conv2d(288, 64, kernel_size=(1, 1), stride=(1, 1), bias=False)
          (bn): BatchNorm2d(64, eps=0.001, momentum=0.1, affine=True, track_running_stats=True)
        )
        (branch5x5_1): BasicConv2d(
          (conv): Conv2d(288, 48, kernel_size=(1, 1), stride=(1, 1), bias=False)
          (bn): BatchNorm2d(48, eps=0.001, momentum=0.1, affine=True, track_running_stats=True)
        )
        (branch5x5_2): BasicConv2d(
          (conv): Conv2d(48, 64, kernel_size=(5, 5), stride=(1, 1), padding=(2, 2), bias=False)
          (bn): BatchNorm2d(64, eps=0.001, momentum=0.1, affine=True, track_running_stats=True)
        )
        (branch3x3dbl_1): BasicConv2d(
          (conv): Conv2d(288, 64, kernel_size=(1, 1), stride=(1, 1), bias=False)
          (bn): BatchNorm2d(64, eps=0.001, momentum=0.1, affine=True, track_running_stats=True)
        )
        (branch3x3dbl_2): BasicConv2d(
          (conv): Conv2d(64, 96, kernel_size=(3, 3), stride=(1, 1), padding=(1, 1), bias=False)
          (bn): BatchNorm2d(96, eps=0.001, momentum=0.1, affine=True, track_running_stats=True)
        )
        (branch3x3dbl_3): BasicConv2d(
          (conv): Conv2d(96, 96, kernel_size=(3, 3), stride=(1, 1), padding=(1, 1), bias=False)
          (bn): BatchNorm2d(96, eps=0.001, momentum=0.1, affine=True, track_running_stats=True)
        )
        (branch_pool): BasicConv2d(
          (conv): Conv2d(288, 64, kernel_size=(1, 1), stride=(1, 1), bias=False)
          (bn): BatchNorm2d(64, eps=0.001, momentum=0.1, affine=True, track_running_stats=True)
        )
      )
      (Mixed_6a): InceptionB(
        (branch3x3): BasicConv2d(
          (conv): Conv2d(288, 384, kernel_size=(3, 3), stride=(2, 2), bias=False)
          (bn): BatchNorm2d(384, eps=0.001, momentum=0.1, affine=True, track_running_stats=True)
        )
        (branch3x3dbl_1): BasicConv2d(
          (conv): Conv2d(288, 64, kernel_size=(1, 1), stride=(1, 1), bias=False)
          (bn): BatchNorm2d(64, eps=0.001, momentum=0.1, affine=True, track_running_stats=True)
        )
        (branch3x3dbl_2): BasicConv2d(
          (conv): Conv2d(64, 96, kernel_size=(3, 3), stride=(1, 1), padding=(1, 1), bias=False)
          (bn): BatchNorm2d(96, eps=0.001, momentum=0.1, affine=True, track_running_stats=True)
        )
        (branch3x3dbl_3): BasicConv2d(
          (conv): Conv2d(96, 96, kernel_size=(3, 3), stride=(2, 2), bias=False)
          (bn): BatchNorm2d(96, eps=0.001, momentum=0.1, affine=True, track_running_stats=True)
        )
      )
      (Mixed_6b): InceptionC(
        (branch1x1): BasicConv2d(
          (conv): Conv2d(768, 192, kernel_size=(1, 1), stride=(1, 1), bias=False)
          (bn): BatchNorm2d(192, eps=0.001, momentum=0.1, affine=True, track_running_stats=True)
        )
        (branch7x7_1): BasicConv2d(
          (conv): Conv2d(768, 128, kernel_size=(1, 1), stride=(1, 1), bias=False)
          (bn): BatchNorm2d(128, eps=0.001, momentum=0.1, affine=True, track_running_stats=True)
        )
        (branch7x7_2): BasicConv2d(
          (conv): Conv2d(128, 128, kernel_size=(1, 7), stride=(1, 1), padding=(0, 3), bias=False)
          (bn): BatchNorm2d(128, eps=0.001, momentum=0.1, affine=True, track_running_stats=True)
        )
        (branch7x7_3): BasicConv2d(
          (conv): Conv2d(128, 192, kernel_size=(7, 1), stride=(1, 1), padding=(3, 0), bias=False)
          (bn): BatchNorm2d(192, eps=0.001, momentum=0.1, affine=True, track_running_stats=True)
        )
        (branch7x7dbl_1): BasicConv2d(
          (conv): Conv2d(768, 128, kernel_size=(1, 1), stride=(1, 1), bias=False)
          (bn): BatchNorm2d(128, eps=0.001, momentum=0.1, affine=True, track_running_stats=True)
        )
        (branch7x7dbl_2): BasicConv2d(
          (conv): Conv2d(128, 128, kernel_size=(7, 1), stride=(1, 1), padding=(3, 0), bias=False)
          (bn): BatchNorm2d(128, eps=0.001, momentum=0.1, affine=True, track_running_stats=True)
        )
        (branch7x7dbl_3): BasicConv2d(
          (conv): Conv2d(128, 128, kernel_size=(1, 7), stride=(1, 1), padding=(0, 3), bias=False)
          (bn): BatchNorm2d(128, eps=0.001, momentum=0.1, affine=True, track_running_stats=True)
        )
        (branch7x7dbl_4): BasicConv2d(
          (conv): Conv2d(128, 128, kernel_size=(7, 1), stride=(1, 1), padding=(3, 0), bias=False)
          (bn): BatchNorm2d(128, eps=0.001, momentum=0.1, affine=True, track_running_stats=True)
        )
        (branch7x7dbl_5): BasicConv2d(
          (conv): Conv2d(128, 192, kernel_size=(1, 7), stride=(1, 1), padding=(0, 3), bias=False)
          (bn): BatchNorm2d(192, eps=0.001, momentum=0.1, affine=True, track_running_stats=True)
        )
        (branch_pool): BasicConv2d(
          (conv): Conv2d(768, 192, kernel_size=(1, 1), stride=(1, 1), bias=False)
          (bn): BatchNorm2d(192, eps=0.001, momentum=0.1, affine=True, track_running_stats=True)
        )
      )
      (Mixed_6c): InceptionC(
        (branch1x1): BasicConv2d(
          (conv): Conv2d(768, 192, kernel_size=(1, 1), stride=(1, 1), bias=False)
          (bn): BatchNorm2d(192, eps=0.001, momentum=0.1, affine=True, track_running_stats=True)
        )
        (branch7x7_1): BasicConv2d(
          (conv): Conv2d(768, 160, kernel_size=(1, 1), stride=(1, 1), bias=False)
          (bn): BatchNorm2d(160, eps=0.001, momentum=0.1, affine=True, track_running_stats=True)
        )
        (branch7x7_2): BasicConv2d(
          (conv): Conv2d(160, 160, kernel_size=(1, 7), stride=(1, 1), padding=(0, 3), bias=False)
          (bn): BatchNorm2d(160, eps=0.001, momentum=0.1, affine=True, track_running_stats=True)
        )
        (branch7x7_3): BasicConv2d(
          (conv): Conv2d(160, 192, kernel_size=(7, 1), stride=(1, 1), padding=(3, 0), bias=False)
          (bn): BatchNorm2d(192, eps=0.001, momentum=0.1, affine=True, track_running_stats=True)
        )
        (branch7x7dbl_1): BasicConv2d(
          (conv): Conv2d(768, 160, kernel_size=(1, 1), stride=(1, 1), bias=False)
          (bn): BatchNorm2d(160, eps=0.001, momentum=0.1, affine=True, track_running_stats=True)
        )
        (branch7x7dbl_2): BasicConv2d(
          (conv): Conv2d(160, 160, kernel_size=(7, 1), stride=(1, 1), padding=(3, 0), bias=False)
          (bn): BatchNorm2d(160, eps=0.001, momentum=0.1, affine=True, track_running_stats=True)
        )
        (branch7x7dbl_3): BasicConv2d(
          (conv): Conv2d(160, 160, kernel_size=(1, 7), stride=(1, 1), padding=(0, 3), bias=False)
          (bn): BatchNorm2d(160, eps=0.001, momentum=0.1, affine=True, track_running_stats=True)
        )
        (branch7x7dbl_4): BasicConv2d(
          (conv): Conv2d(160, 160, kernel_size=(7, 1), stride=(1, 1), padding=(3, 0), bias=False)
          (bn): BatchNorm2d(160, eps=0.001, momentum=0.1, affine=True, track_running_stats=True)
        )
        (branch7x7dbl_5): BasicConv2d(
          (conv): Conv2d(160, 192, kernel_size=(1, 7), stride=(1, 1), padding=(0, 3), bias=False)
          (bn): BatchNorm2d(192, eps=0.001, momentum=0.1, affine=True, track_running_stats=True)
        )
        (branch_pool): BasicConv2d(
          (conv): Conv2d(768, 192, kernel_size=(1, 1), stride=(1, 1), bias=False)
          (bn): BatchNorm2d(192, eps=0.001, momentum=0.1, affine=True, track_running_stats=True)
        )
      )
      (Mixed_6d): InceptionC(
        (branch1x1): BasicConv2d(
          (conv): Conv2d(768, 192, kernel_size=(1, 1), stride=(1, 1), bias=False)
          (bn): BatchNorm2d(192, eps=0.001, momentum=0.1, affine=True, track_running_stats=True)
        )
        (branch7x7_1): BasicConv2d(
          (conv): Conv2d(768, 160, kernel_size=(1, 1), stride=(1, 1), bias=False)
…
          (bn): BatchNorm2d(64, eps=0.001, momentum=0.1, affine=True, track_running_stats=True)
        )
        (branch5x5_1): BasicConv2d(
          (conv): Conv2d(256, 48, kernel_size=(1, 1), stride=(1, 1), bias=False)
          (bn): BatchNorm2d(48, eps=0.001, momentum=0.1, affine=True, track_running_stats=True)
        )
        (branch5x5_2): BasicConv2d(
          (conv): Conv2d(48, 64, kernel_size=(5, 5), stride=(1, 1), padding=(2, 2), bias=False)
          (bn): BatchNorm2d(64, eps=0.001, momentum=0.1, affine=True, track_running_stats=True)
        )
        (branch3x3dbl_1): BasicConv2d(
          (conv): Conv2d(256, 64, kernel_size=(1, 1), stride=(1, 1), bias=False)
          (bn): BatchNorm2d(64, eps=0.001, momentum=0.1, affine=True, track_running_stats=True)
        )
        (branch3x3dbl_2): BasicConv2d(
          (conv): Conv2d(64, 96, kernel_size=(3, 3), stride=(1, 1), padding=(1, 1), bias=False)
          (bn): BatchNorm2d(96, eps=0.001, momentum=0.1, affine=True, track_running_stats=True)
        )
        (branch3x3dbl_3): BasicConv2d(
          (conv): Conv2d(96, 96, kernel_size=(3, 3), stride=(1, 1), padding=(1, 1), bias=False)
          (bn): BatchNorm2d(96, eps=0.001, momentum=0.1, affine=True, track_running_stats=True)
        )
        (branch_pool): BasicConv2d(
          (conv): Conv2d(256, 64, kernel_size=(1, 1), stride=(1, 1), bias=False)
          (bn): BatchNorm2d(64, eps=0.001, momentum=0.1, affine=True, track_running_stats=True)
        )
      )
      (Mixed_5d): InceptionA(
        (branch1x1): BasicConv2d(
          (conv): Conv2d(288, 64, kernel_size=(1, 1), stride=(1, 1), bias=False)
          (bn): BatchNorm2d(64, eps=0.001, momentum=0.1, affine=True, track_running_stats=True)
        )
        (branch5x5_1): BasicConv2d(
          (conv): Conv2d(288, 48, kernel_size=(1, 1), stride=(1, 1), bias=False)
          (bn): BatchNorm2d(48, eps=0.001, momentum=0.1, affine=True, track_running_stats=True)
        )
        (branch5x5_2): BasicConv2d(
          (conv): Conv2d(48, 64, kernel_size=(5, 5), stride=(1, 1), padding=(2, 2), bias=False)
          (bn): BatchNorm2d(64, eps=0.001, momentum=0.1, affine=True, track_running_stats=True)
        )
        (branch3x3dbl_1): BasicConv2d(
          (conv): Conv2d(288, 64, kernel_size=(1, 1), stride=(1, 1), bias=False)
          (bn): BatchNorm2d(64, eps=0.001, momentum=0.1, affine=True, track_running_stats=True)
        )
        (branch3x3dbl_2): BasicConv2d(
          (conv): Conv2d(64, 96, kernel_size=(3, 3), stride=(1, 1), padding=(1, 1), bias=False)
          (bn): BatchNorm2d(96, eps=0.001, momentum=0.1, affine=True, track_running_stats=True)
        )
        (branch3x3dbl_3): BasicConv2d(
          (conv): Conv2d(96, 96, kernel_size=(3, 3), stride=(1, 1), padding=(1, 1), bias=False)
          (bn): BatchNorm2d(96, eps=0.001, momentum=0.1, affine=True, track_running_stats=True)
        )
        (branch_pool): BasicConv2d(
          (conv): Conv2d(288, 64, kernel_size=(1, 1), stride=(1, 1), bias=False)
          (bn): BatchNorm2d(64, eps=0.001, momentum=0.1, affine=True, track_running_stats=True)
        )
      )
      (Mixed_6a): InceptionB(
        (branch3x3): BasicConv2d(
          (conv): Conv2d(288, 384, kernel_size=(3, 3), stride=(2, 2), bias=False)
          (bn): BatchNorm2d(384, eps=0.001, momentum=0.1, affine=True, track_running_stats=True)
        )
        (branch3x3dbl_1): BasicConv2d(
          (conv): Conv2d(288, 64, kernel_size=(1, 1), stride=(1, 1), bias=False)
          (bn): BatchNorm2d(64, eps=0.001, momentum=0.1, affine=True, track_running_stats=True)
        )
        (branch3x3dbl_2): BasicConv2d(
          (conv): Conv2d(64, 96, kernel_size=(3, 3), stride=(1, 1), padding=(1, 1), bias=False)
          (bn): BatchNorm2d(96, eps=0.001, momentum=0.1, affine=True, track_running_stats=True)
        )
        (branch3x3dbl_3): BasicConv2d(
          (conv): Conv2d(96, 96, kernel_size=(3, 3), stride=(2, 2), bias=False)
          (bn): BatchNorm2d(96, eps=0.001, momentum=0.1, affine=True, track_running_stats=True)
        )
      )
      (Mixed_6b): InceptionC(
        (branch1x1): BasicConv2d(
          (conv): Conv2d(768, 192, kernel_size=(1, 1), stride=(1, 1), bias=False)
          (bn): BatchNorm2d(192, eps=0.001, momentum=0.1, affine=True, track_running_stats=True)
        )
        (branch7x7_1): BasicConv2d(
          (conv): Conv2d(768, 128, kernel_size=(1, 1), stride=(1, 1), bias=False)
          (bn): BatchNorm2d(128, eps=0.001, momentum=0.1, affine=True, track_running_stats=True)
        )
        (branch7x7_2): BasicConv2d(
          (conv): Conv2d(128, 128, kernel_size=(1, 7), stride=(1, 1), padding=(0, 3), bias=False)
          (bn): BatchNorm2d(128, eps=0.001, momentum=0.1, affine=True, track_running_stats=True)
        )
        (branch7x7_3): BasicConv2d(
          (conv): Conv2d(128, 192, kernel_size=(7, 1), stride=(1, 1), padding=(3, 0), bias=False)
          (bn): BatchNorm2d(192, eps=0.001, momentum=0.1, affine=True, track_running_stats=True)
        )
        (branch7x7dbl_1): BasicConv2d(
          (conv): Conv2d(768, 128, kernel_size=(1, 1), stride=(1, 1), bias=False)
          (bn): BatchNorm2d(128, eps=0.001, momentum=0.1, affine=True, track_running_stats=True)
        )
        (branch7x7dbl_2): BasicConv2d(
          (conv): Conv2d(128, 128, kernel_size=(7, 1), stride=(1, 1), padding=(3, 0), bias=False)
          (bn): BatchNorm2d(128, eps=0.001, momentum=0.1, affine=True, track_running_stats=True)
        )
        (branch7x7dbl_3): BasicConv2d(
          (conv): Conv2d(128, 128, kernel_size=(1, 7), stride=(1, 1), padding=(0, 3), bias=False)
          (bn): BatchNorm2d(128, eps=0.001, momentum=0.1, affine=True, track_running_stats=True)
        )
        (branch7x7dbl_4): BasicConv2d(
          (conv): Conv2d(128, 128, kernel_size=(7, 1), stride=(1, 1), padding=(3, 0), bias=False)
          (bn): BatchNorm2d(128, eps=0.001, momentum=0.1, affine=True, track_running_stats=True)
        )
        (branch7x7dbl_5): BasicConv2d(
          (conv): Conv2d(128, 192, kernel_size=(1, 7), stride=(1, 1), padding=(0, 3), bias=False)
          (bn): BatchNorm2d(192, eps=0.001, momentum=0.1, affine=True, track_running_stats=True)
        )
        (branch_pool): BasicConv2d(
          (conv): Conv2d(768, 192, kernel_size=(1, 1), stride=(1, 1), bias=False)
          (bn): BatchNorm2d(192, eps=0.001, momentum=0.1, affine=True, track_running_stats=True)
        )
      )
      (Mixed_6c): InceptionC(
        (branch1x1): BasicConv2d(
          (conv): Conv2d(768, 192, kernel_size=(1, 1), stride=(1, 1), bias=False)
          (bn): BatchNorm2d(192, eps=0.001, momentum=0.1, affine=True, track_running_stats=True)
        )
        (branch7x7_1): BasicConv2d(
          (conv): Conv2d(768, 160, kernel_size=(1, 1), stride=(1, 1), bias=False)
          (bn): BatchNorm2d(160, eps=0.001, momentum=0.1, affine=True, track_running_stats=True)
        )
        (branch7x7_2): BasicConv2d(
          (conv): Conv2d(160, 160, kernel_size=(1, 7), stride=(1, 1), padding=(0, 3), bias=False)
          (bn): BatchNorm2d(160, eps=0.001, momentum=0.1, affine=True, track_running_stats=True)
        )
        (branch7x7_3): BasicConv2d(
          (conv): Conv2d(160, 192, kernel_size=(7, 1), stride=(1, 1), padding=(3, 0), bias=False)
          (bn): BatchNorm2d(192, eps=0.001, momentum=0.1, affine=True, track_running_stats=True)
        )
        (branch7x7dbl_1): BasicConv2d(
          (conv): Conv2d(768, 160, kernel_size=(1, 1), stride=(1, 1), bias=False)
          (bn): BatchNorm2d(160, eps=0.001, momentum=0.1, affine=True, track_running_stats=True)
        )
        (branch7x7dbl_2): BasicConv2d(
          (conv): Conv2d(160, 160, kernel_size=(7, 1), stride=(1, 1), padding=(3, 0), bias=False)
          (bn): BatchNorm2d(160, eps=0.001, momentum=0.1, affine=True, track_running_stats=True)
        )
        (branch7x7dbl_3): BasicConv2d(
          (conv): Conv2d(160, 160, kernel_size=(1, 7), stride=(1, 1), padding=(0, 3), bias=False)
          (bn): BatchNorm2d(160, eps=0.001, momentum=0.1, affine=True, track_running_stats=True)
        )
        (branch7x7dbl_4): BasicConv2d(
          (conv): Conv2d(160, 160, kernel_size=(7, 1), stride=(1, 1), padding=(3, 0), bias=False)
          (bn): BatchNorm2d(160, eps=0.001, momentum=0.1, affine=True, track_running_stats=True)
        )
        (branch7x7dbl_5): BasicConv2d(
          (conv): Conv2d(160, 192, kernel_size=(1, 7), stride=(1, 1), padding=(0, 3), bias=False)
          (bn): BatchNorm2d(192, eps=0.001, momentum=0.1, affine=True, track_running_stats=True)
        )
        (branch_pool): BasicConv2d(
          (conv): Conv2d(768, 192, kernel_size=(1, 1), stride=(1, 1), bias=False)
          (bn): BatchNorm2d(192, eps=0.001, momentum=0.1, affine=True, track_running_stats=True)
        )
      )
      (Mixed_6d): InceptionC(
        (branch1x1): BasicConv2d(
          (conv): Conv2d(768, 192, kernel_size=(1, 1), stride=(1, 1), bias=False)
          (bn): BatchNorm2d(192, eps=0.001, momentum=0.1, affine=True, track_running_stats=True)
        )
        (branch7x7_1): BasicConv2d(
          (conv): Conv2d(768, 160, kernel_size=(1, 1), stride=(1, 1), bias=False)
          (bn): BatchNorm2d(160, eps=0.001, momentum=0.1, affine=True, track_running_stats=True)
        )
        (branch7x7_2): BasicConv2d(
          (conv): Conv2d(160, 160, kernel_size=(1, 7), stride=(1, 1), padding=(0, 3), bias=False)
          (bn): BatchNorm2d(160, eps=0.001, momentum=0.1, affine=True, track_running_stats=True)
        )
        (branch7x7_3): BasicConv2d(
          (conv): Conv2d(160, 192, kernel_size=(7, 1), stride=(1, 1), padding=(3, 0), bias=False)
          (bn): BatchNorm2d(192, eps=0.001, momentum=0.1, affine=True, track_running_stats=True)
        )
        (branch7x7dbl_1): BasicConv2d(
          (conv): Conv2d(768, 160, kernel_size=(1, 1), stride=(1, 1), bias=False)
          (bn): BatchNorm2d(160, eps=0.001, momentum=0.1, affine=True, track_running_stats=True)
        )
        (branch7x7dbl_2): BasicConv2d(
          (conv): Conv2d(160, 160, kernel_size=(7, 1), stride=(1, 1), padding=(3, 0), bias=False)
          (bn): BatchNorm2d(160, eps=0.001, momentum=0.1, affine=True, track_running_stats=True)
        )
        (branch7x7dbl_3): BasicConv2d(
          (conv): Conv2d(160, 160, kernel_size=(1, 7), stride=(1, 1), padding=(0, 3), bias=False)
          (bn): BatchNorm2d(160, eps=0.001, momentum=0.1, affine=True, track_running_stats=True)
        )
        (branch7x7dbl_4): BasicConv2d(
          (conv): Conv2d(160, 160, kernel_size=(7, 1), stride=(1, 1), padding=(3, 0), bias=False)
          (bn): BatchNorm2d(160, eps=0.001, momentum=0.1, affine=True, track_running_stats=True)
        )
        (branch7x7dbl_5): BasicConv2d(
          (conv): Conv2d(160, 192, kernel_size=(1, 7), stride=(1, 1), padding=(0, 3), bias=False)
          (bn): BatchNorm2d(192, eps=0.001, momentum=0.1, affine=True, track_running_stats=True)
        )
        (branch_pool): BasicConv2d(
          (conv): Conv2d(768, 192, kernel_size=(1, 1), stride=(1, 1), bias=False)
          (bn): BatchNorm2d(192, eps=0.001, momentum=0.1, affine=True, track_running_stats=True)
        )
      )
      (Mixed_6e): InceptionC(
        (branch1x1): BasicConv2d(
          (conv): Conv2d(768, 192, kernel_size=(1, 1), stride=(1, 1), bias=False)
          (bn): BatchNorm2d(192, eps=0.001, momentum=0.1, affine=True, track_running_stats=True)
        )
        (branch7x7_1): BasicConv2d(
          (conv): Conv2d(768, 192, kernel_size=(1, 1), stride=(1, 1), bias=False)
          (bn): BatchNorm2d(192, eps=0.001, momentum=0.1, affine=True, track_running_stats=True)
        )
        (branch7x7_2): BasicConv2d(
          (conv): Conv2d(192, 192, kernel_size=(1, 7), stride=(1, 1), padding=(0, 3), bias=False)
          (bn): BatchNorm2d(192, eps=0.001, momentum=0.1, affine=True, track_running_stats=True)
        )
        (branch7x7_3): BasicConv2d(
          (conv): Conv2d(192, 192, kernel_size=(7, 1), stride=(1, 1), padding=(3, 0), bias=False)
          (bn): BatchNorm2d(192, eps=0.001, momentum=0.1, affine=True, track_running_stats=True)
        )
        (branch7x7dbl_1): BasicConv2d(
          (conv): Conv2d(768, 192, kernel_size=(1, 1), stride=(1, 1), bias=False)
          (bn): BatchNorm2d(192, eps=0.001, momentum=0.1, affine=True, track_running_stats=True)
        )
        (branch7x7dbl_2): BasicConv2d(
          (conv): Conv2d(192, 192, kernel_size=(7, 1), stride=(1, 1), padding=(3, 0), bias=False)
          (bn): BatchNorm2d(192, eps=0.001, momentum=0.1, affine=True, track_running_stats=True)
        )
        (branch7x7dbl_3): BasicConv2d(
          (conv): Conv2d(192, 192, kernel_size=(1, 7), stride=(1, 1), padding=(0, 3), bias=False)
          (bn): BatchNorm2d(192, eps=0.001, momentum=0.1, affine=True, track_running_stats=True)
        )
        (branch7x7dbl_4): BasicConv2d(
          (conv): Conv2d(192, 192, kernel_size=(7, 1), stride=(1, 1), padding=(3, 0), bias=False)
          (bn): BatchNorm2d(192, eps=0.001, momentum=0.1, affine=True, track_running_stats=True)
        )
        (branch7x7dbl_5): BasicConv2d(
          (conv): Conv2d(192, 192, kernel_size=(1, 7), stride=(1, 1), padding=(0, 3), bias=False)
          (bn): BatchNorm2d(192, eps=0.001, momentum=0.1, affine=True, track_running_stats=True)
        )
        (branch_pool): BasicConv2d(
          (conv): Conv2d(768, 192, kernel_size=(1, 1), stride=(1, 1), bias=False)
          (bn): BatchNorm2d(192, eps=0.001, momentum=0.1, affine=True, track_running_stats=True)
        )
      )
      (Mixed_7a): InceptionD(
        (branch3x3_1): BasicConv2d(
          (conv): Conv2d(768, 192, kernel_size=(1, 1), stride=(1, 1), bias=False)
          (bn): BatchNorm2d(192, eps=0.001, momentum=0.1, affine=True, track_running_stats=True)
        )
        (branch3x3_2): BasicConv2d(
          (conv): Conv2d(192, 320, kernel_size=(3, 3), stride=(2, 2), bias=False)
          (bn): BatchNorm2d(320, eps=0.001, momentum=0.1, affine=True, track_running_stats=True)
        )
        (branch7x7x3_1): BasicConv2d(
          (conv): Conv2d(768, 192, kernel_size=(1, 1), stride=(1, 1), bias=False)
          (bn): BatchNorm2d(192, eps=0.001, momentum=0.1, affine=True, track_running_stats=True)
        )
        (branch7x7x3_2): BasicConv2d(
          (conv): Conv2d(192, 192, kernel_size=(1, 7), stride=(1, 1), padding=(0, 3), bias=False)
          (bn): BatchNorm2d(192, eps=0.001, momentum=0.1, affine=True, track_running_stats=True)
        )
        (branch7x7x3_3): BasicConv2d(
          (conv): Conv2d(192, 192, kernel_size=(7, 1), stride=(1, 1), padding=(3, 0), bias=False)
          (bn): BatchNorm2d(192, eps=0.001, momentum=0.1, affine=True, track_running_stats=True)
        )
        (branch7x7x3_4): BasicConv2d(
          (conv): Conv2d(192, 192, kernel_size=(3, 3), stride=(2, 2), bias=False)
          (bn): BatchNorm2d(192, eps=0.001, momentum=0.1, affine=True, track_running_stats=True)
        )
      )
      (Mixed_7b): InceptionE_1(
        (branch1x1): BasicConv2d(
          (conv): Conv2d(1280, 320, kernel_size=(1, 1), stride=(1, 1), bias=False)
          (bn): BatchNorm2d(320, eps=0.001, momentum=0.1, affine=True, track_running_stats=True)
        )
        (branch3x3_1): BasicConv2d(
          (conv): Conv2d(1280, 384, kernel_size=(1, 1), stride=(1, 1), bias=False)
          (bn): BatchNorm2d(384, eps=0.001, momentum=0.1, affine=True, track_running_stats=True)
        )
        (branch3x3_2a): BasicConv2d(
          (conv): Conv2d(384, 384, kernel_size=(1, 3), stride=(1, 1), padding=(0, 1), bias=False)
          (bn): BatchNorm2d(384, eps=0.001, momentum=0.1, affine=True, track_running_stats=True)
        )
        (branch3x3_2b): BasicConv2d(
          (conv): Conv2d(384, 384, kernel_size=(3, 1), stride=(1, 1), padding=(1, 0), bias=False)
          (bn): BatchNorm2d(384, eps=0.001, momentum=0.1, affine=True, track_running_stats=True)
        )
        (branch3x3dbl_1): BasicConv2d(
          (conv): Conv2d(1280, 448, kernel_size=(1, 1), stride=(1, 1), bias=False)
          (bn): BatchNorm2d(448, eps=0.001, momentum=0.1, affine=True, track_running_stats=True)
        )
        (branch3x3dbl_2): BasicConv2d(
          (conv): Conv2d(448, 384, kernel_size=(3, 3), stride=(1, 1), padding=(1, 1), bias=False)
          (bn): BatchNorm2d(384, eps=0.001, momentum=0.1, affine=True, track_running_stats=True)
        )
        (branch3x3dbl_3a): BasicConv2d(
          (conv): Conv2d(384, 384, kernel_size=(1, 3), stride=(1, 1), padding=(0, 1), bias=False)
          (bn): BatchNorm2d(384, eps=0.001, momentum=0.1, affine=True, track_running_stats=True)
        )
        (branch3x3dbl_3b): BasicConv2d(
          (conv): Conv2d(384, 384, kernel_size=(3, 1), stride=(1, 1), padding=(1, 0), bias=False)
          (bn): BatchNorm2d(384, eps=0.001, momentum=0.1, affine=True, track_running_stats=True)
        )
        (branch_pool): BasicConv2d(
          (conv): Conv2d(1280, 192, kernel_size=(1, 1), stride=(1, 1), bias=False)
          (bn): BatchNorm2d(192, eps=0.001, momentum
=0.1, affine=True, track_running_stats=True)
        )
      )
      (Mixed_7c): InceptionE_2(
        (branch1x1): BasicConv2d(
          (conv): Conv2d(2048, 320, kernel_size=(1, 1), stride=(1, 1), bias=False)
          (bn): BatchNorm2d(320, eps=0.001, momentum=0.1, affine=True, track_running_stats=True)
        )
        (branch3x3_1): BasicConv2d(
          (conv): Conv2d(2048, 384, kernel_size=(1, 1), stride=(1, 1), bias=False)
          (bn): BatchNorm2d(384, eps=0.001, momentum=0.1, affine=True, track_running_stats=True)
        )
        (branch3x3_2a): BasicConv2d(
          (conv): Conv2d(384, 384, kernel_size=(1, 3), stride=(1, 1), padding=(0, 1), bias=False)
          (bn): BatchNorm2d(384, eps=0.001, momentum=0.1, affine=True, track_running_stats=True)
        )
        (branch3x3_2b): BasicConv2d(
          (conv): Conv2d(384, 384, kernel_size=(3, 1), stride=(1, 1), padding=(1, 0), bias=False)
          (bn): BatchNorm2d(384, eps=0.001, momentum=0.1, affine=True, track_running_stats=True)
        )
        (branch3x3dbl_1): BasicConv2d(
          (conv): Conv2d(2048, 448, kernel_size=(1, 1), stride=(1, 1), bias=False)
          (bn): BatchNorm2d(448, eps=0.001, momentum=0.1, affine=True, track_running_stats=True)
        )
        (branch3x3dbl_2): BasicConv2d(
          (conv): Conv2d(448, 384, kernel_size=(3, 3), stride=(1, 1), padding=(1, 1), bias=False)
          (bn): BatchNorm2d(384, eps=0.001, momentum=0.1, affine=True, track_running_stats=True)
        )
        (branch3x3dbl_3a): BasicConv2d(
          (conv): Conv2d(384, 384, kernel_size=(1, 3), stride=(1, 1), padding=(0, 1), bias=False)
          (bn): BatchNorm2d(384, eps=0.001, momentum=0.1, affine=True, track_running_stats=True)
        )
        (branch3x3dbl_3b): BasicConv2d(
          (conv): Conv2d(384, 384, kernel_size=(3, 1), stride=(1, 1), padding=(1, 0), bias=False)
          (bn): BatchNorm2d(384, eps=0.001, momentum=0.1, affine=True, track_running_stats=True)
        )
        (branch_pool): BasicConv2d(
          (conv): Conv2d(2048, 192, kernel_size=(1, 1), stride=(1, 1), bias=False)
          (bn): BatchNorm2d(192, eps=0.001, momentum=0.1, affine=True, track_running_stats=True)
        )
      )
      (AvgPool): AdaptiveAvgPool2d(output_size=(1, 1))
      (fc): Linear(in_features=2048, out_features=1008, bias=True)
    )
  )
), FID_CLIP(
  (clip): CLIP(
    (visual): VisionTransformer(
      (conv1): Conv2d(3, 768, kernel_size=(32, 32), stride=(32, 32), bias=False)
      (ln_pre): LayerNorm((768,), eps=1e-05, elementwise_affine=True)
      (transformer): Transformer(
        (resblocks): Sequential(
          (0): ResidualAttentionBlock(
            (attn): MultiheadAttention(
              (out_proj): NonDynamicallyQuantizableLinear(in_features=768, out_features=768, bias=True)
            )
            (ln_1): LayerNorm((768,), eps=1e-05, elementwise_affine=True)
            (mlp): Sequential(
              (c_fc): Linear(in_features=768, out_features=3072, bias=True)
              (gelu): QuickGELU()
              (c_proj): Linear(in_features=3072, out_features=768, bias=True)
            )
            (ln_2): LayerNorm((768,), eps=1e-05, elementwise_affine=True)
          )
          (1): ResidualAttentionBlock(
            (attn): MultiheadAttention(
              (out_proj): NonDynamicallyQuantizableLinear(in_features=768, out_features=768, bias=True)
            )
            (ln_1): LayerNorm((768,), eps=1e-05, elementwise_affine=True)
            (mlp): Sequential(
              (c_fc): Linear(in_features=768, out_features=3072, bias=True)
              (gelu): QuickGELU()
              (c_proj): Linear(in_features=3072, out_features=768, bias=True)
            )
            (ln_2): LayerNorm((768,), eps=1e-05, elementwise_affine=True)
          )
          (2): ResidualAttentionBlock(
            (attn): MultiheadAttention(
              (out_proj): NonDynamicallyQuantizableLinear(in_features=768, out_features=768, bias=True)
            )
            (ln_1): LayerNorm((768,), eps=1e-05, elementwise_affine=True)
            (mlp): Sequential(
              (c_fc): Linear(in_features=768, out_features=3072, bias=True)
              (gelu): QuickGELU()
              (c_proj): Linear(in_features=3072, out_features=768, bias=True)
            )
            (ln_2): LayerNorm((768,), eps=1e-05, elementwise_affine=True)
          )
          (3): ResidualAttentionBlock(
            (attn): MultiheadAttention(
              (out_proj): NonDynamicallyQuantizableLinear(in_features=768, out_features=768, bias=True)
            )
            (ln_1): LayerNorm((768,), eps=1e-05, elementwise_affine=True)
            (mlp): Sequential(
              (c_fc): Linear(in_features=768, out_features=3072, bias=True)
              (gelu): QuickGELU()
              (c_proj): Linear(in_features=3072, out_features=768, bias=True)
            )
            (ln_2): LayerNorm((768,), eps=1e-05, elementwise_affine=True)
          )
          (4): ResidualAttentionBlock(
            (attn): MultiheadAttention(
              (out_proj): NonDynamicallyQuantizableLinear(in_features=768, out_features=768, bias=True)
            )
            (ln_1): LayerNorm((768,), eps=1e-05, elementwise_affine=True)
            (mlp): Sequential(
              (c_fc): Linear(in_features=768, out_features=3072, bias=True)
              (gelu): QuickGELU()
              (c_proj): Linear(in_features=3072, out_features=768, bias=True)
            )
            (ln_2): LayerNorm((768,), eps=1e-05, elementwise_affine=True)
          )
          (5): ResidualAttentionBlock(
            (attn): MultiheadAttention(
              (out_proj): NonDynamicallyQuantizableLinear(in_features=768, out_features=768, bias=True)
            )
            (ln_1): LayerNorm((768,), eps=1e-05, elementwise_affine=True)
            (mlp): Sequential(
              (c_fc): Linear(in_features=768, out_features=3072, bias=True)
              (gelu): QuickGELU()
              (c_proj): Linear(in_features=3072, out_features=768, bias=True)
            )
            (ln_2): LayerNorm((768,), eps=1e-05, elementwise_affine=True)
          )
          (6): ResidualAttentionBlock(
            (attn): MultiheadAttention(
              (out_proj): NonDynamicallyQuantizableLinear(in_features=768, out_features=768, bias=True)
            )
            (ln_1): LayerNorm((768,), eps=1e-05, elementwise_affine=True)
            (mlp): Sequential(
              (c_fc): Linear(in_features=768, out_features=3072, bias=True)
              (gelu): QuickGELU()
              (c_proj): Linear(in_features=3072, out_features=768, bias=True)
            )
            (ln_2): LayerNorm((768,), eps=1e-05, elementwise_affine=True)
          )
          (7): ResidualAttentionBlock(
            (attn): MultiheadAttention(
              (out_proj): NonDynamicallyQuantizableLinear(in_features=768, out_features=768, bias=True)
            )
            (ln_1): LayerNorm((768,), eps=1e-05, elementwise_affine=True)
            (mlp): Sequential(
              (c_fc): Linear(in_features=768, out_features=3072, bias=True)
              (gelu): QuickGELU()
              (c_proj): Linear(in_features=3072, out_features=768, bias=True)
            )
            (ln_2): LayerNorm((768,), eps=1e-05, elementwise_affine=True)
          )
          (8): ResidualAttentionBlock(
            (attn): MultiheadAttention(
              (out_proj): NonDynamicallyQuantizableLinear(in_features=768, out_features=768, bias=True)
            )
            (ln_1): LayerNorm((768,), eps=1e-05, elementwise_affine=True)
            (mlp): Sequential(
              (c_fc): Linear(in_features=768, out_features=3072, bias=True)
              (gelu): QuickGELU()
              (c_proj): Linear(in_features=3072, out_features=768, bias=True)
            )
            (ln_2): LayerNorm((768,), eps=1e-05, elementwise_affine=True)
          )
          (9): ResidualAttentionBlock(
            (attn): MultiheadAttention(
              (out_proj): NonDynamicallyQuantizableLinear(in_features=768, out_features=768, bias=True)
            )
            (ln_1): LayerNorm((768,), eps=1e-05, elementwise_affine=True)
            (mlp): Sequential(
              (c_fc): Linear(in_features=768, out_features=3072, bias=True)
              (gelu): QuickGELU()
              (c_proj): Linear(in_features=3072, out_features=768, bias=True)
            )
            (ln_2): LayerNorm((768,), eps=1e-05, elementwise_affine=True)
          )
          (10): ResidualAttentionBlock(
            (attn): MultiheadAttention(
              (out_proj): NonDynamicallyQuantizableLinear(in_features=768, out_features=768, bias=True)
            )
            (ln_1): LayerNorm((768,), eps=1e-05, elementwise_affine=True)
            (mlp): Sequential(
              (c_fc): Linear(in_features=768, out_features=3072, bias=True)
              (gelu): QuickGELU()
              (c_proj): Linear(in_features=3072, out_features=768, bias=True)
            )
            (ln_2): LayerNorm((768,), eps=1e-05, elementwise_affine=True)
          )
          (11): ResidualAttentionBlock(
            (attn): MultiheadAttention(
              (out_proj): NonDynamicallyQuantizableLinear(in_features=768, out_features=768, bias=True)
            )
            (ln_1): LayerNorm((768,), eps=1e-05, elementwise_affine=True)
            (mlp): Sequential(
              (c_fc): Linear(in_features=768, out_features=3072, bias=True)
              (gelu): QuickGELU()
              (c_proj): Linear(in_features=3072, out_features=768, bias=True)
            )
            (ln_2): LayerNorm((768,), eps=1e-05, elementwise_affine=True)
          )
        )
      )
      (ln_post): LayerNorm((768,), eps=1e-05, elementwise_affine=True)
    )
    (transformer): Transformer(
      (resblocks): Sequential(
        (0): ResidualAttentionBlock(
          (attn): MultiheadAttention(
            (out_proj): NonDynamicallyQuantizableLinear(in_features=512, out_features=512, bias=True)
          )
          (ln_1): LayerNorm((512,), eps=1e-05, elementwise_affine=True)
          (mlp): Sequential(
            (c_fc): Linear(in_features=512, out_features=2048, bias=True)
            (gelu): QuickGELU()
            (c_proj): Linear(in_features=2048, out_features=512, bias=True)
          )
          (ln_2): LayerNorm((512,), eps=1e-05, elementwise_affine=True)
        )
        (1): ResidualAttentionBlock(
          (attn): MultiheadAttention(
            (out_proj): NonDynamicallyQuantizableLinear(in_features=512, out_features=512, bias=True)
          )
          (ln_1): LayerNorm((512,), eps=1e-05, elementwise_affine=True)
          (mlp): Sequential(
            (c_fc): Linear(in_features=512, out_features=2048, bias=True)
            (gelu): QuickGELU()
            (c_proj): Linear(in_features=2048, out_features=512, bias=True)
          )
          (ln_2): LayerNorm((512,), eps=1e-05, elementwise_affine=True)
        )
        (2): ResidualAttentionBlock(
          (attn): MultiheadAttention(
            (out_proj): NonDynamicallyQuantizableLinear(in_features=512, out_features=512, bias=True)
          )
          (ln_1): LayerNorm((512,), eps=1e-05, elementwise_affine=True)
          (mlp): Sequential(
            (c_fc): Linear(in_features=512, out_features=2048, bias=True)
            (gelu): QuickGELU()
            (c_proj): Linear(in_features=2048, out_features=512, bias=True)
          )
          (ln_2): LayerNorm((512,), eps=1e-05, elementwise_affine=True)
        )
        (3): ResidualAttentionBlock(
          (attn): MultiheadAttention(
            (out_proj): NonDynamicallyQuantizableLinear(in_features=512, out_features=512, bias=True)
          )
          (ln_1): LayerNorm((512,), eps=1e-05, elementwise_affine=True)
          (mlp): Sequential(
            (c_fc): Linear(in_features=512, out_features=2048, bias=True)
            (gelu): QuickGELU()
            (c_proj): Linear(in_features=2048, out_features=512, bias=True)
          )
          (ln_2): LayerNorm((512,), eps=1e-05, elementwise_affine=True)
        )
        (4): ResidualAttentionBlock(
          (attn): MultiheadAttention(
            (out_proj): NonDynamicallyQuantizableLinear(in_features=512, out_features=512, bias=True)
          )
          (ln_1): LayerNorm((512,), eps=1e-05, elementwise_affine=True)
          (mlp): Sequential(
            (c_fc): Linear(in_features=512, out_features=2048, bias=True)
            (gelu): QuickGELU()
            (c_proj): Linear(in_features=2048, out_features=512, bias=True)
          )
          (ln_2): LayerNorm((512,), eps=1e-05, elementwise_affine=True)
        )
        (5): ResidualAttentionBlock(
          (attn): MultiheadAttention(
            (out_proj): NonDynamicallyQuantizableLinear(in_features=512, out_features=512, bias=True)
          )
          (ln_1): LayerNorm((512,), eps=1e-05, elementwise_affine=True)
          (mlp): Sequential(
            (c_fc): Linear(in_features=512, out_features=2048, bias=True)
            (gelu): QuickGELU()
            (c_proj): Linear(in_features=2048, out_features=512, bias=True)
          )
          (ln_2): LayerNorm((512,), eps=1e-05, elementwise_affine=True)
        )
        (6): ResidualAttentionBlock(
          (attn): MultiheadAttention(
            (out_proj): NonDynamicallyQuantizableLinear(in_features=512, out_features=512, bias=True)
          )
          (ln_1): LayerNorm((512,), eps=1e-05, elementwise_affine=True)
          (mlp): Sequential(
            (c_fc): Linear(in_features=512, out_features=2048, bias=True)
            (gelu): QuickGELU()
            (c_proj): Linear(in_features=2048, out_features=512, bias=True)
          )
          (ln_2): LayerNorm((512,), eps=1e-05, elementwise_affine=True)
        )
        (7): ResidualAttentionBlock(
          (attn): MultiheadAttention(
            (out_proj): NonDynamicallyQuantizableLinear(in_features=512, out_features=512, bias=True)
          )
          (ln_1): LayerNorm((512,), eps=1e-05, elementwise_affine=True)
          (mlp): Sequential(
            (c_fc): Linear(in_features=512, out_features=2048, bias=True)
            (gelu): QuickGELU()
            (c_proj): Linear(in_features=2048, out_features=512, bias=True)
          )
          (ln_2): LayerNorm((512,), eps=1e-05, elementwise_affine=True)
        )
        (8): ResidualAttentionBlock(
          (attn): MultiheadAttention(
            (out_proj): NonDynamicallyQuantizableLinear(in_features=512, out_features=512, bias=True)
          )
          (ln_1): LayerNorm((512,), eps=1e-05, elementwise_affine=True)
          (mlp): Sequential(
            (c_fc): Linear(in_features=512, out_features=2048, bias=True)
            (gelu): QuickGELU()
            (c_proj): Linear(in_features=2048, out_features=512, bias=True)
          )
          (ln_2): LayerNorm((512,), eps=1e-05, elementwise_affine=True)
        )
        (9): ResidualAttentionBlock(
          (attn): MultiheadAttention(
            (out_proj): NonDynamicallyQuantizableLinear(in_features=512, out_features=512, bias=True)
          )
          (ln_1): LayerNorm((512,), eps=1e-05, elementwise_affine=True)
          (mlp): Sequential(
            (c_fc): Linear(in_features=512, out_features=2048, bias=True)
            (gelu): QuickGELU()
            (c_proj): Linear(in_features=2048, out_features=512, bias=True)
          )
          (ln_2): LayerNorm((512,), eps=1e-05, elementwise_affine=True)
        )
        (10): ResidualAttentionBlock(
          (attn): MultiheadAttention(
            (out_proj): NonDynamicallyQuantizableLinear(in_features=512, out_features=512, bias=True)
          )
          (ln_1): LayerNorm((512,), eps=1e-05, elementwise_affine=True)
          (mlp): Sequential(
            (c_fc): Linear(in_features=512, out_features=2048, bias=True)
            (gelu): QuickGELU()
            (c_proj): Linear(in_features=2048, out_features=512, bias=True)
          )
          (ln_2): LayerNorm((512,), eps=1e-05, elementwise_affine=True)
        )
        (11): ResidualAttentionBlock(
          (attn): MultiheadAttention(
            (out_proj): NonDynamicallyQuantizableLinear(in_features=512, out_features=512, bias=True)
          )
          (ln_1): LayerNorm((512,), eps=1e-05, elementwise_affine=True)
          (mlp): Sequential(
            (c_fc): Linear(in_features=512, out_features=2048, bias=True)
            (gelu): QuickGELU()
            (c_proj): Linear(in_features=2048, out_features=512, bias=True)
          )
          (ln_2): LayerNorm((512,), eps=1e-05, elementwise_affine=True)
        )
      )
    )
    (token_embedding): Embedding(49408, 512)
    (ln_final): LayerNorm((512,), eps=1e-05, elementwise_affine=True)
  )
), FID_CLIP(
  (clip): CustomTextCLIP(
    (visual): TimmModel(
      (trunk): VisionTransformer(
        (patch_embed): PatchEmbed(
          (proj): Conv2d(3, 768, kernel_size=(16, 16), stride=(16, 16))
          (norm): Identity()
        )
        (pos_drop): Dropout(p=0.0, inplace=False)
        (patch_drop): Identity()
        (norm_pre): Identity()
        (blocks): Sequential(
          (0): Block(
            (norm1): LayerNorm((768,), eps=1e-06, elementwise_affine=True)
            (attn): Attention(
              (qkv): Linear(in_features=768, out_features=2304, bias=True)
              (q_norm): Identity()
              (k_norm): Identity()
              (attn_drop): Dropout(p=0.0, inplace=False)
              (proj): Linear(in_features=768, out_features=768, bias=True)
              (proj_drop): Dropout(p=0.0, inplace=False)
            )
            (ls1): Identity()
            (drop_path1): Identity()
            (norm2): LayerNorm((768,), eps=1e-06, elementwise_affine=True)
            (mlp): Mlp(
              (fc1): Linear(in_features=768, out_features=3072, bias=True)
              (act): GELU(approximate='none')
              (drop1): Dropout(p=0.0, inplace=False)
              (norm): Identity()
              (fc2): Linear(in_features=3072, out_features=768, bias=True)
              (drop2): Dropout(p=0.0, inplace=False)
            )
            (ls2): Identity()
            (drop_path2): Identity()
          )
          (1): Block(
            (norm1): LayerNorm((768,), eps=1e-06, elementwise_affine=True)
            (attn): Attention(
              (qkv): Linear(in_features=768, out_features=2304, bias=True)
              (q_norm): Identity()
              (k_norm): Identity()
              (attn_drop): Dropout(p=0.0, inplace=False)
              (proj): Linear(in_features=768, out_features=768, bias=True)
              (proj_drop): Dropout(p=0.0, inplace=False)
            )
            (ls1): Identity()
            (drop_path1): Identity()
            (norm2): LayerNorm((768,), eps=1e-06, elementwise_affine=True)
            (mlp): Mlp(
              (fc1): Linear(in_features=768, out_features=3072, bias=True)
              (act): GELU(approximate='none')
              (drop1): Dropout(p=0.0, inplace=False)
              (norm): Identity()
              (fc2): Linear(in_features=3072, out_features=768, bias=True)
              (drop2): Dropout(p=0.0, inplace=False)
            )
            (ls2): Identity()
            (drop_path2): Identity()
          )
          (2): Block(
            (norm1): LayerNorm((768,), eps=1e-06, elementwise_affine=True)
            (attn): Attention(
              (qkv): Linear(in_features=768, out_features=2304, bias=True)
              (q_norm): Identity()
              (k_norm): Identity()
              (attn_drop): Dropout(p=0.0, inplace=False)
              (proj): Linear(in_features=768, out_features=768, bias=True)
              (proj_drop): Dropout(p=0.0, inplace=False)
            )
            (ls1): Identity()
            (drop_path1): Identity()
            (norm2): LayerNorm((768,), eps=1e-06, elementwise_affine=True)
            (mlp): Mlp(
              (fc1): Linear(in_features=768, out_features=3072, bias=True)
              (act): GELU(approximate='none')
              (drop1): Dropout(p=0.0, inplace=False)
              (norm): Identity()
              (fc2): Linear(in_features=3072, out_features=768, bias=True)
              (drop2): Dropout(p=0.0, inplace=False)
            )
            (ls2): Identity()
            (drop_path2): Identity()
          )
          (3): Block(
            (norm1): LayerNorm((768,), eps=1e-06, elementwise_affine=True)
            (attn): Attention(
              (qkv): Linear(in_features=768, out_features=2304, bias=True)
              (q_norm): Identity()
              (k_norm): Identity()
              (attn_drop): Dropout(p=0.0, inplace=False)
              (proj): Linear(in_features=768, out_features=768, bias=True)
              (proj_drop): Dropout(p=0.0, inplace=False)
            )
            (ls1): Identity()
            (drop_path1): Identity()
            (norm2): LayerNorm((768,), eps=1e-06, elementwise_affine=True)
            (mlp): Mlp(
              (fc1): Linear(in_features=768, out_features=3072, bias=True)
              (act): GELU(approximate='none')
              (drop1): Dropout(p=0.0, inplace=False)
              (norm): Identity()
              (fc2): Linear(in_features=3072, out_features=768, bias=True)
              (drop2): Dropout(p=0.0, inplace=False)
            )
            (ls2): Identity()
            (drop_path2): Identity()
          )
          (4): Block(
            (norm1): LayerNorm((768,), eps=1e-06, elementwise_affine=True)
            (attn): Attention(
              (qkv): Linear(in_features=768, out_features=2304, bias=True)
              (q_norm): Identity()
              (k_norm): Identity()
              (attn_drop): Dropout(p=0.0, inplace=False)
              (proj): Linear(in_features=768, out_features=768, bias=True)
              (proj_drop): Dropout(p=0.0, inplace=False)
            )
            (ls1): Identity()
            (drop_path1): Identity()
            (norm2): LayerNorm((768,), eps=1e-06, elementwise_affine=True)
            (mlp): Mlp(
              (fc1): Linear(in_features=768, out_features=3072, bias=True)
              (act): GELU(approximate='none')
              (drop1): Dropout(p=0.0, inplace=False)
              (norm): Identity()
              (fc2): Linear(in_features=3072, out_features=768, bias=True)
              (drop2): Dropout(p=0.0, inplace=False)
            )
            (ls2): Identity()
            (drop_path2): Identity()
          )
          (5): Block(
            (norm1): LayerNorm((768,), eps=1e-06, elementwise_affine=True)
            (attn): Attention(
              (qkv): Linear(in_features=768, out_features=2304, bias=True)
              (q_norm): Identity()
              (k_norm): Identity()
              (attn_drop): Dropout(p=0.0, inplace=False)
              (proj): Linear(in_features=768, out_features=768, bias=True)
              (proj_drop): Dropout(p=0.0, inplace=False)
            )
            (ls1): Identity()
            (drop_path1): Identity()
            (norm2): LayerNorm((768,), eps=1e-06, elementwise_affine=True)
            (mlp): Mlp(
              (fc1): Linear(in_features=768, out_features=3072, bias=True)
              (act): GELU(approximate='none')
              (drop1): Dropout(p=0.0, inplace=False)
              (norm): Identity()
              (fc2): Linear(in_features=3072, out_features=768, bias=True)
              (drop2): Dropout(p=0.0, inplace=False)
            )
            (ls2): Identity()
            (drop_path2): Identity()
          )
          (6): Block(
            (norm1): LayerNorm((768,), eps=1e-06, elementwise_affine=True)
            (attn): Attention(
              (qkv): Linear(in_features=768, out_features=2304, bias=True)
              (q_norm): Identity()
              (k_norm): Identity()
              (attn_drop): Dropout(p=0.0, inplace=False)
              (proj): Linear(in_features=768, out_features=768, bias=True)
              (proj_drop): Dropout(p=0.0, inplace=False)
            )
            (ls1): Identity()
            (drop_path1): Identity()
            (norm2): LayerNorm((768,), eps=1e-06, elementwise_affine=True)
            (mlp): Mlp(
              (fc1): Linear(in_features=768, out_features=3072, bias=True)
              (act): GELU(approximate='none')
              (drop1): Dropout(p=0.0, inplace=False)
              (norm): Identity()
              (fc2): Linear(in_features=3072, out_features=768, bias=True)
              (drop2): Dropout(p=0.0, inplace=False)
            )
            (ls2): Identity()
            (drop_path2): Identity()
          )
          (7): Block(
            (norm1): LayerNorm((768,), eps=1e-06, elementwise_affine=True)
            (attn): Attention(
              (qkv): Linear(in_features=768, out_features=2304, bias=True)
              (q_norm): Identity()
              (k_norm): Identity()
              (attn_drop): Dropout(p=0.0, inplace=False)
              (proj): Linear(in_features=768, out_features=768, bias=True)
              (proj_drop): Dropout(p=0.0, inplace=False)
            )
            (ls1): Identity()
            (drop_path1): Identity()
            (norm2): LayerNorm((768,), eps=1e-06, elementwise_affine=True)
            (mlp): Mlp(
              (fc1): Linear(in_features=768, out_features=3072, bias=True)
              (act): GELU(approximate='none')
              (drop1): Dropout(p=0.0, inplace=False)
              (norm): Identity()
              (fc2): Linear(in_features=3072, out_features=768, bias=True)
              (drop2): Dropout(p=0.0, inplace=False)
            )
            (ls2): Identity()
            (drop_path2): Identity()
          )
          (8): Block(
            (norm1): LayerNorm((768,), eps=1e-06, elementwise_affine=True)
            (attn): Attention(
              (qkv): Linear(in_features=768, out_features=2304, bias=True)
              (q_norm): Identity()
              (k_norm): Identity()
              (attn_drop): Dropout(p=0.0, inplace=False)
              (proj): Linear(in_features=768, out_features=768, bias=True)
              (proj_drop): Dropout(p=0.0, inplace=False)
            )
            (ls1): Identity()
            (drop_path1): Identity()
            (norm2): LayerNorm((768,), eps=1e-06, elementwise_affine=True)
            (mlp): Mlp(
              (fc1): Linear(in_features=768, out_features=3072, bias=True)
              (act): GELU(approximate='none')
              (drop1): Dropout(p=0.0, inplace=False)
              (norm): Identity()
              (fc2): Linear(in_features=3072, out_features=768, bias=True)
              (drop2): Dropout(p=0.0, inplace=False)
            )
            (ls2): Identity()
            (drop_path2): Identity()
          )
          (9): Block(
            (norm1): LayerNorm((768,), eps=1e-06, elementwise_affine=True)
            (attn): Attention(
              (qkv): Linear(in_features=768, out_features=2304, bias=True)
              (q_norm): Identity()
              (k_norm): Identity()
              (attn_drop): Dropout(p=0.0, inplace=False)
              (proj): Linear(in_features=768, out_features=768, bias=True)
              (proj_drop): Dropout(p=0.0, inplace=False)
            )
            (ls1): Identity()
            (drop_path1): Identity()
            (norm2): LayerNorm((768,), eps=1e-06, elementwise_affine=True)
            (mlp): Mlp(
              (fc1): Linear(in_features=768, out_features=3072, bias=True)
              (act): GELU(approximate='none')
              (drop1): Dropout(p=0.0, inplace=False)
              (norm): Identity()
              (fc2): Linear(in_features=3072, out_features=768, bias=True)
              (drop2): Dropout(p=0.0, inplace=False)
            )
            (ls2): Identity()
            (drop_path2): Identity()
          )
          (10): Block(
            (norm1): LayerNorm((768,), eps=1e-06, elementwise_affine=True)
            (attn): Attention(
              (qkv): Linear(in_features=768, out_features=2304, bias=True)
              (q_norm): Identity()
              (k_norm): Identity()
              (attn_drop): Dropout(p=0.0, inplace=False)
              (proj): Linear(in_features=768, out_features=768, bias=True)
              (proj_drop): Dropout(p=0.0, inplace=False)
            )
            (ls1): Identity()
            (drop_path1): Identity()
            (norm2): LayerNorm((768,), eps=1e-06, elementwise_affine=True)
            (mlp): Mlp(
              (fc1): Linear(in_features=768, out_features=3072, bias=True)
              (act): GELU(approximate='none')
              (drop1): Dropout(p=0.0, inplace=False)
              (norm): Identity()
              (fc2): Linear(in_features=3072, out_features=768, bias=True)
              (drop2): Dropout(p=0.0, inplace=False)
            )
            (ls2): Identity()
            (drop_path2): Identity()
          )
          (11): Block(
            (norm1): LayerNorm((768,), eps=1e-06, elementwise_affine=True)
            (attn): Attention(
              (qkv): Linear(in_features=768, out_features=2304, bias=True)
              (q_norm): Identity()
              (k_norm): Identity()
              (attn_drop): Dropout(p=0.0, inplace=False)
              (proj): Linear(in_features=768, out_features=768, bias=True)
              (proj_drop): Dropout(p=0.0, inplace=False)
            )
            (ls1): Identity()
            (drop_path1): Identity()
            (norm2): LayerNorm((768,), eps=1e-06, elementwise_affine=True)
            (mlp): Mlp(
              (fc1): Linear(in_features=768, out_features=3072, bias=True)
              (act): GELU(approximate='none')
              (drop1): Dropout(p=0.0, inplace=False)
              (norm): Identity()
              (fc2): Linear(in_features=3072, out_features=768, bias=True)
              (drop2): Dropout(p=0.0, inplace=False)
            )
            (ls2): Identity()
            (drop_path2): Identity()
          )
        )
        (norm): LayerNorm((768,), eps=1e-06, elementwise_affine=True)
        (fc_norm): Identity()
        (head_drop): Dropout(p=0.0, inplace=False)
        (head): Identity()
      )
      (head): Sequential(
        (drop): Dropout(p=0.0, inplace=False)
        (proj): Linear(in_features=768, out_features=512, bias=False)
      )
    )
    (text): HFTextEncoder(
      (transformer): BertModel(
        (embeddings): BertEmbeddings(
          (word_embeddings): Embedding(30522, 768, padding_idx=0)
          (position_embeddings): Embedding(512, 768)
          (token_type_embeddings): Embedding(2, 768)
          (LayerNorm): LayerNorm((768,), eps=1e-12, elementwise_affine=True)
          (dropout): Dropout(p=0.1, inplace=False)
        )
        (encoder): BertEncoder(
          (layer): ModuleList(
            (0-11): 12 x BertLayer(
              (attention): BertAttention(
                (self): BertSelfAttention(
                  (query): Linear(in_features=768, out_features=768, bias=True)
                  (key): Linear(in_features=768, out_features=768, bias=True)
                  (value): Linear(in_features=768, out_features=768, bias=True)
                  (dropout): Dropout(p=0.1, inplace=False)
                )
                (output): BertSelfOutput(
                  (dense): Linear(in_features=768, out_features=768, bias=True)
                  (LayerNorm): LayerNorm((768,), eps=1e-12, elementwise_affine=True)
                  (dropout): Dropout(p=0.1, inplace=False)
                )
              )
              (intermediate): BertIntermediate(
                (dense): Linear(in_features=768, out_features=3072, bias=True)
                (intermediate_act_fn): GELUActivation()
              )
              (output): BertOutput(
                (dense): Linear(in_features=3072, out_features=768, bias=True)
                (LayerNorm): LayerNorm((768,), eps=1e-12, elementwise_affine=True)
                (dropout): Dropout(p=0.1, inplace=False)
              )
            )
          )
        )
      )
      (pooler): ClsLastHiddenStatePooler()
      (proj): Sequential(
        (0): Linear(in_features=768, out_features=640, bias=False)
        (1): GELU(approximate='none')
        (2): Linear(in_features=640, out_features=512, bias=False)
      )
    )
  )
))
[[36m2023-11-29 02:35:48,753[0m][[34maccelerate.checkpointing[0m][[32mINFO[0m] - All model weights loaded successfully[0m
Loaded from checkpoint
=> Starting model training 
Error executing job with overrides: ['experiment=vae']
Traceback (most recent call last):
  File "/mnt/Client/Lachlai6mf74jkmjamzpg5ro3q3jvo3e/laclactagnpqiwtzcuvd76qfflxevkxu/isc-demos/stanford/CompRx/comprx/train_vae.py", line 310, in <module>
…
